best_small_lstm.pt (torch, 221701 bytes, 9 tensors)

lstm.weight_ih_l0 f4 [256, 16]
0	0x3d4655c0	0.04842162
1	0x3de5813b	0.112062894
2	0xbc6f0892	-0.014589446
3	0x3df0309e	0.11728023
4	0xbc831228	-0.015999869
5	0x3d2632d5	0.04057582
6	0xbd4a4f9f	-0.04939234
7	0x3d8dabc0	0.06917524
8	0x3dd8709f	0.10568356
9	0xbdc53033	-0.09628334
10	0x3de1586d	0.11003194
11	0x3ca7217c	0.020401709
12	0x3dbd55f1	0.09244908
13	0x3c90ce17	0.017676396
14	0x3d5c0d62	0.0537237
15	0xbb31b054	-0.0027113156
16	0x3cd2c29a	0.025727559
17	0x3c981d56	0.018568676
18	0xbd6e4d68	-0.05817929
19	0x3d1d74d0	0.03844148
20	0xbd6b713b	-0.057481032
21	0xbc912f7b	-0.017722836
22	0xbd66844d	-0.056278516
23	0x3d9dc8b1	0.077042945
24	0xbddd1ea6	-0.10796861
25	0xbd84a634	-0.06477013
26	0xbc517da8	-0.012786306
27	0xbd82a646	-0.063793704
28	0x3c9679f4	0.018368699
29	0xbe0f0b48	-0.13969147
30	0x3de9d9a6	0.11418466
31	0xbdd0ee5a	-0.10201712
32	0x3e2500e7	0.16113625
33	0x3c2c58d1	0.010519222
34	0xbd6011ad	-0.054704357
35	0x3d8db6a5	0.06919602
36	0x3cb4d589	0.022074478
37	0x3db87cfa	0.090082124
38	0x3c1ceaa0	0.009577423
39	0xbd49e4d3	-0.04929049
40	0x3cde8704	0.02716399
41	0xbd542938	-0.05179712
42	0x3d7a0256	0.061037384
43	0x3ddc6949	0.10762269
44	0x3d8777cf	0.066146486
45	0xbd743985	-0.059625167
46	0x3da27b0e	0.07933627
47	0x3c9576ec	0.018245183
48	0x3d570f9a	0.052505113
49	0xbda817fb	-0.08207699
50	0xbdf9a794	-0.12190166
51	0xbd74e1a3	-0.059785496
52	0xbdc87091	-0.09787095
53	0x3da0a093	0.07843127
54	0x3c2d9715	0.010595103
55	0x3d530142	0.05151487
56	0x3d23815a	0.03991828
57	0xbb9ed0d9	-0.004846674
58	0x3dca7f52	0.09887566
59	0xbdb4eaed	-0.08833871
60	0xba6dc492	-0.0009070124
61	0xbdae6cb0	-0.08516824
62	0x3d3134d0	0.043263257
63	0xbd1b2f4a	-0.037886895
64	0x3d438354	0.047732666
65	0xbcd83627	-0.02639301
66	0x3dd4c12a	0.103884056
67	0xbd9a6219	-0.07538242
68	0xbd9bf278	-0.076146066
69	0xbda0de10	-0.07854855
70	0x3dddc88f	0.10829269
71	0x3c96355f	0.018335996
72	0x3dc8067e	0.09766863
73	0xbdfa11ec	-0.122104496
74	0xbdf84f26	-0.12124471
75	0xbdca667b	-0.09882828
76	0xbda67892	-0.08128466
77	0x3cfde3b7	0.030992372
78	0x3d36d178	0.04463336
79	0x3dbbb85a	0.09166022
80	0xbc67fb46	-0.014159029
81	0xbdc202fe	-0.09473227
82	0x3d6695af	0.056295093
83	0xbd7b767b	-0.06139229
84	0x3dad07be	0.08448742
85	0xbd346db8	-0.04404995
86	0x3d6be36c	0.057589933
87	0xbddc1adc	-0.107473105
88	0xbd9443bf	-0.07239484
89	0x3cebb7a6	0.028774094
90	0x3cd14807	0.02554704
91	0xbd001c93	-0.03127725
92	0x3d8b6a3f	0.06807374
93	0x3dbadecb	0.09124526
94	0xbdb3ee7d	-0.087857224
95	0xbd8b83f5	-0.06812278
96	0x3d5ffd18	0.05468473
97	0xbd19af85	-0.037520904
98	0xbcde87fc	-0.027164452
99	0xbdfe3454	-0.124123245
100	0xbd9b9f3c	-0.07598731
101	0x3b649700	0.0034880042
102	0xbd3c6757	-0.04599699
103	0xbdcee3f6	-0.10102074
104	0xbc5d9edd	-0.0135266455
105	0xbdd71ab2	-0.105031386
106	0xbdfe67a4	-0.12422112
107	0xbd9e1fb1	-0.077208884
108	0xbdda0d70	-0.10647094
109	0xbd7e4039	-0.062072966
110	0x3df85018	0.12124652
111	0x3d80349d	0.06260035
112	0x3d68d788	0.05684617
113	0xbdfcade5	-0.12337855
114	0xbdb2379c	-0.08702013
115	0xbd3bb16c	-0.0458235
116	0x3c28296f	0.010263785
117	0xbdc223e5	-0.094795026
118	0xbd20d71b	-0.03926764
119	0xbdcda79f	-0.10041737
120	0xbcd6313c	-0.026146524
121	0xbd9075d8	-0.07053727
122	0xbc8eac8f	-0.017416267
123	0xbd9fcac3	-0.078023456
124	0xbdad044c	-0.08448085
125	0xbd759b17	-0.05996236
126	0xbd3c87ab	-0.04602782
127	0xbdc598a7	-0.09648257
128	0x3e00e873	0.12588672
129	0xbd2059e5	-0.03914823
130	0x3de65bb7	0.11247962
131	0x3d3672f9	0.04454324
132	0xbdd347c2	-0.10316421
133	0x3dffab03	0.1248379
134	0xb9d09b4b	-0.00039788554
135	0xbd706af5	-0.058695752
136	0xbdf4f578	-0.11960882
137	0xbe0b52b5	-0.13605769
138	0x3d01fd86	0.03173592
139	0xbd0cae10	-0.034345686
140	0x3d923a7f	0.071400635
141	0xbdd9ae3f	-0.10628938
142	0x3dbbdf63	0.09173467
143	0xbdb689a1	-0.089129694
144	0x3c8ce707	0.017200006
145	0x3c816df5	0.015799502
146	0x3d55224d	0.052034665
147	0x3db7bc3f	0.08971452
148	0x3db101b3	0.08642902
149	0xbde15328	-0.11002189
150	0x3c845fcb	0.016158959
151	0xbdb151d5	-0.08658186
152	0xbd32964e	-0.043600373
153	0xbde7bc7f	-0.1131525
154	0x3e0409d8	0.1289438
155	0xbdc67d03	-0.09691813
156	0x3d76543b	0.060138922
157	0x3d77e7dd	0.060523856
158	0x3d6740bc	0.05645822
159	0xbd73a8d7	-0.05948719
160	0x3dad71a6	0.08468942
161	0x3c37e6fc	0.011224505
162	0x3bf67d60	0.00752227
163	0xbdf2f568	-0.11863214
164	0x3d0eb8aa	0.034844078
165	0xbcacf8ae	-0.021114673
166	0xbd78e414	-0.060764387
167	0x3dcf08ed	0.10109124
168	0x3cab09a8	0.020878628
169	0xbd9c1130	-0.07620466
170	0xbd4fd65b	-0.050741535
171	0x3b59eea0	0.0033253804
172	0x3d88ae74	0.06673899
173	0xbd0c7241	-0.03428865
174	0xbd938c7a	-0.07204528
175	0xbd47429d	-0.04864751
176	0xbe10843f	-0.14112948
177	0x3d75c1df	0.059999343
178	0x3dd7dd1d	0.10540221
179	0xbe013a68	-0.12619936
180	0x3cacceec	0.021094762
181	0x3cd66ffc	0.026176445
182	0xbca95ede	-0.020675119
183	0xbd359414	-0.04433067
184	0x3d6ed3bc	0.058307394
185	0x3d3e0525	0.046391625
186	0x3d02f8b9	0.03197548
187	0xbc6f3125	-0.014599119
188	0xbd1b8a9a	-0.037973978
189	0x3c6ae20d	0.014336121
190	0xbd03bc13	-0.032161783
191	0xbcd00928	-0.025394991
192	0x3d536afa	0.051615693
193	0x3dceb179	0.10092444
194	0xbc9d2d4b	-0.019186636
195	0xbc5b863c	-0.013398703
196	0xbc158c51	-0.009127692
197	0xbc1bcbf0	-0.009509072
198	0x3d04aed8	0.032393306
199	0x3d0b2fed	0.033981252
200	0xbdf005d0	-0.11719859
201	0xbd46ae56	-0.048506103
202	0x3e0025b0	0.12514377
203	0x3d6291b0	0.05531472
204	0xbb154d9c	-0.0022781854
205	0xbd98334b	-0.07431658
206	0xbd8b7790	-0.06809914
207	0xbdfc8f43	-0.123320125
208	0xbd7b1aa4	-0.061304703
209	0x3d7360d8	0.05941853
210	0x3de58ff6	0.11209099
211	0x3d868592	0.06568445
212	0xbe02923e	-0.127511
213	0xbde0a387	-0.1096869
214	0xbd6ac5dc	-0.0573176
215	0x3dc4d8c0	0.09611654
216	0xbc448a81	-0.0119959125
217	0xbd6d1562	-0.05788172
218	0x3cfcdbe6	0.030866574
219	0xbd18c895	-0.037300665
220	0xbd8842ac	-0.06653342
221	0x3d987eb5	0.074460424
222	0xbd85b3da	-0.065284446
223	0xbd27717b	-0.040879708
224	0xbdfba2ed	-0.12286935
225	0x3dd347a0	0.10316396
226	0x3e00db03	0.12583546
227	0x3d13a1e2	0.036043055
228	0xbdcbbcbf	-0.0994811
229	0xbe048b7a	-0.12943831
230	0xbddf3ec6	-0.10900645
231	0x3dae9f50	0.0852648
232	0x3d50f005	0.05101015
233	0x3dc7d2a0	0.097569704
234	0x3d39a221	0.045320634
235	0x3c059dd9	0.00815531
236	0x3ca91564	0.020640083
237	0xbdf74481	-0.12073613
238	0xbe062e9f	-0.13103722
239	0xbe04aef1	-0.1295736
240	0xbca6af40	-0.020347238
241	0xbd8d4244	-0.06897405
242	0xbd1d9214	-0.03846939
243	0xbdc34920	-0.09535432
244	0xbc80c67e	-0.015719648
245	0xbdd35d2a	-0.10320504
246	0xbdc60084	-0.09668067
247	0x3ce16780	0.027515173
248	0xbd604644	-0.05475451
249	0x3d34c3fc	0.044132218
250	0xbcdb7bb6	-0.026792388
251	0xbdb05bca	-0.086112574
252	0xbca62c14	-0.02028469
253	0xbd9ae8b4	-0.07563916
254	0xbd014445	-0.031559248
255	0xbde9be8f	-0.11413299

lstm.weight_hh_l0 f4 [256, 64]
0	0xbda90543	-0.08252957
1	0x3dd0dc26	0.1019824
2	0x3de82bd3	0.11336484
3	0x3dbc7bd0	0.09203303
4	0xbd461bd4	-0.048366383
5	0x3dd3b16a	0.103365734
6	0xbddf02cb	-0.108892046
7	0x3d8d4b98	0.06899184
8	0xbcdfcf48	-0.02732052
9	0xbdc77454	-0.09738985
10	0xbdc8eecc	-0.09811172
11	0xbde0e45f	-0.10981058
12	0x3d015c04	0.031581894
13	0xbd556158	-0.052094787
14	0xbd7560f9	-0.059906933
15	0x3df106e3	0.11768892
16	0xbd0c861b	-0.03430758
17	0x3d3b9ef1	0.045805875
18	0xbc212762	-0.00983605
19	0x3db999de	0.09062551
20	0x3d261e27	0.0405561
21	0x3da208e7	0.07911854
22	0x3d0f71e0	0.03502071
23	0xbd464100	-0.048401833
24	0x3dfa4b14	0.12221351
25	0x3cded29a	0.027200032
26	0xbd917831	-0.07103003
27	0x3d093c81	0.033504967
28	0xbb1c627d	-0.0023862415
29	0xbdb684e7	-0.08912068
30	0x3cec2391	0.028825553
31	0xbd1df762	-0.038566
32	0xbd8bcfbb	-0.06826731
33	0xbd85bd33	-0.065302275
34	0xbd4d4950	-0.050118744
35	0xbc8aab20	-0.016927302
36	0x3c5282ad	0.012848538
37	0x3dec94e9	0.1155184
38	0xbda7cc18	-0.08193225
39	0xbd80dea2	-0.06292464
40	0xbd9fe6df	-0.07807707
41	0xbbab25f7	-0.0052230316
42	0x3b1170f9	0.002219258
43	0xbdbd9d9e	-0.09258579
44	0x3d7fc4a4	0.06244339
45	0xbdf768f6	-0.120805666
46	0x3de69e92	0.11260714
47	0x3ccaee35	0.02477179
48	0xbcbc411c	-0.022980265
49	0xbd2d7089	-0.04234365
50	0x3d4882bf	0.048952814
51	0x3dc35c9c	0.09539148
52	0xbda76089	-0.081727095
53	0xbcd02bbb	-0.025411477
54	0x3db2e635	0.08735315
55	0xbc8cf22c	-0.01720532
56	0xbd93beba	-0.072141126
57	0xbcf1b568	-0.029505447
58	0x3c594bc1	0.01326269
59	0x3bc0536b	0.005869319
60	0xbdb2a3fb	-0.08722683
61	0xbdb50476	-0.088387415
62	0x3d29a6b5	0.04141875
63	0x3dcfbd56	0.10143535
64	0x3deded43	0.1161752
65	0xbc8ed01e	-0.017433222
66	0x3d555375	0.052081544
67	0xbdd70b16	-0.10500161
68	0x3d9abbb6	0.07555334
69	0x3df1e770	0.11811721
70	0x3d850e03	0.06496813
71	0xbd245625	-0.040121216
72	0x3de347fb	0.110977136
73	0xbdfd0283	-0.12353995
74	0xbbab13bf	-0.00522086
75	0xbcd9200b	-0.026504537
76	0xbe0f1931	-0.13974454
77	0xbdc542d1	-0.09631885
78	0xbdbbbf30	-0.091673255
79	0x3cbbc6b6	0.022921901
80	0xbc0a0c1c	-0.008425739
81	0x3d68946c	0.05678217
82	0xbc8b2909	-0.01698734
83	0x3dd4af28	0.10384971
84	0x3c3ce17c	0.011528369
85	0x3db98d4c	0.09060153
86	0x3dd09376	0.10184376
87	0xbdec7a38	-0.11546749
88	0xbd84e318	-0.06488627
89	0x3da855ad	0.08219466
90	0x3de4221d	0.11139319
91	0xbdd30bb0	-0.103049636
92	0xbbafd8ed	-0.0053664357
93	0xbd348223	-0.04406942
94	0x3de2e15e	0.11078142
95	0x3dce59ba	0.10075708
96	0x3da9abde	0.08284734
97	0x3d8f78f6	0.07005493
98	0xbc17c4d3	-0.009263235
99	0x3df675eb	0.1203421
100	0xbd810c35	-0.063011564
101	0x3acb7740	0.001552321
102	0xbd0ade68	-0.03390351
103	0xbdbe5892	-0.09294237
104	0xbd75b9f6	-0.0599918
105	0x3d0ecbd4	0.034862354
106	0xbb63f739	-0.0034784807
107	0xbdb8248e	-0.08991347
108	0xbca65af0	-0.020307034
109	0x3c8099ac	0.015698276
110	0xbd80c04d	-0.062866785
111	0x3d8b4564	0.068003446
112	0xbdcb221e	-0.09918617
113	0x3c699865	0.014257525
114	0xbdcf09fd	-0.10109327
115	0xbdea19ab	-0.11430677
116	0xbc3a43ee	-0.011368735
117	0x3df7d35b	0.1210086
118	0x3df7b4b9	0.12095017
119	0x3ceec998	0.029148862
120	0x3dc3adfd	0.0955467
121	0xbd6319db	-0.05544458
122	0x3d8d42a9	0.0689748
123	0x3da2429d	0.07922862
124	0xbde46570	-0.1115216
125	0xbdb43d97	-0.0880081
126	0x3d8e7f3d	0.069578625
127	0x3ca949f7	0.020665152
128	0xbd9b1e2c	-0.07574114
129	0xbdf43323	-0.11923816
130	0x3db33310	0.08749974
131	0x3c756c27	0.014979399
132	0xbc27dd50	-0.010245636
133	0xbe0e10c2	-0.1387358
134	0x3dd8f9b2	0.105945006
135	0xbd9a0e0f	-0.07522213
136	0x3d6327c9	0.055457864
137	0xbc1e1981	-0.009649635
138	0x3c0de9dd	0.008661714
139	0x3d6de667	0.058081057
140	0xbd153532	-0.036427684
141	0xbcdd24e3	-0.026995128
142	0x3dce3428	0.10068542
143	0xbdd711e5	-0.1050146
144	0x3d8742a2	0.06604506
145	0xbcc28b1d	-0.023747975
146	0xbd3cd13e	-0.046097986
147	0x3d94f469	0.0727318
148	0x3c6e00db	0.014526571
149	0xbdf96246	-0.12176947
150	0x3def5e2b	0.11687883
151	0xbd9c2c06	-0.07625584
152	0x3dd94b75	0.106100954
153	0xbd3dd6ce	-0.04634743
154	0x3df4f4b6	0.119607374
155	0x3cbe9920	0.023266375
156	0xbc750e4d	-0.014957023
157	0x3d46ffb8	0.048583716
158	0xbc1ddcc9	-0.009635159
159	0xbd53fbde	-0.05175387
160	0x3d566719	0.052344415
161	0x3dc1083b	0.09425398
162	0xbcd94089	-0.02652003
163	0x3dc1fcbb	0.09472033
164	0xbc30acf4	-0.010783423
165	0xbd9aa676	-0.07551281
166	0xbd60b0e0	-0.05485618
167	0x3dbc69cc	0.09199867
168	0xbd70cfab	-0.058791798
169	0x3d94884c	0.07252559
170	0xbe001a47	-0.12510024
171	0xbcd33949	-0.025784152
172	0xbdcc00b6	-0.09961073
173	0x3d557110	0.052109778
174	0x3de644e0	0.112436056
175	0x3ce11a9c	0.027478509
176	0xbd029339	-0.031878684
177	0xbde6a3c1	-0.11261702
178	0xbd590c39	-0.052990172
179	0xbdb2ef42	-0.08737041
180	0x3e032e39	0.12810601
181	0xbd93e846	-0.07222037
182	0x3d65f2d8	0.056139797
183	0x3da618f7	0.081102304
184	0x3cf79343	0.030221587
185	0xbdae0e1e	-0.084987864
186	0xbce606a2	-0.028079335
187	0xbd055a60	-0.03255689
188	0x3db2b99b	0.08726808
189	0xbcbcd2b8	-0.023049697
190	0x3c5fe89f	0.013666301
191	0x3e04be77	0.12963282
192	0x3cfacf8f	0.03061655
193	0x3d6d5c10	0.057949126
194	0xbd2d83ab	-0.042361896
195	0x3da5d99d	0.08098147
196	0x3c8cab4d	0.017171526
197	0xbcd20c40	-0.025640607
198	0x3c837949	0.016049044
199	0xbdb92047	-0.090393595
200	0xbaafb5ee	-0.001340566
201	0x3d930dcc	0.07180366
202	0xbdebe4f2	-0.11518277
203	0xbd978030	-0.07397497
204	0x3d9e5728	0.077314675
205	0x3b80c145	0.0039292895
206	0x3a3c1ea5	0.0007176197
207	0x3c26cfa7	0.010181344
208	0xbd59561d	-0.05306064
209	0x3deb996c	0.11503872
210	0xbc908e50	-0.017645985
211	0xbd659673	-0.056051683
212	0x3d87c1f4	0.066287905
213	0xbddd8859	-0.10817022
214	0xbcd7178a	-0.026256341
215	0xbc129a31	-0.008947895
216	0xbd1dee07	-0.03855708
217	0x3d833002	0.06405641
218	0xbdddd12b	-0.10830911
219	0xbd24a1b0	-0.04019326
220	0xbd5af3eb	-0.053455275
221	0x3df2ecf5	0.11861602
222	0x3d3c06c4	0.04590489
223	0xbdad2250	-0.0845381
224	0x3d39ae8d	0.04533248
225	0xbcef4145	-0.029205928
226	0x3de56179	0.11200232
227	0x3d84f021	0.064911135
228	0xbdbc69cc	-0.09199867
229	0x3ddc6036	0.10760538
230	0xbc574ebf	-0.013141333
231	0xbcf506b9	-0.029910432
232	0x3d0ebe2b	0.034849327
233	0x3dfa3dac	0.12218794
234	0x3d2b6789	0.041846786
235	0xbdf6c2e7	-0.120488934
236	0xbd499816	-0.049217306
237	0x3df2f192	0.11862482
238	0xbd408824	-0.047004834
239	0xbd7b69f0	-0.061380327
240	0xbdd8aa36	-0.1057934
241	0xbd8aa2f1	-0.0676936
242	0xbd876598	-0.06611174
243	0x3ca647c6	0.020297896
244	0x3d7ea063	0.062164675
245	0x3df588fb	0.119890176
246	0x3dabf0e9	0.08395559
247	0xbb2c87e9	-0.0026326126
248	0x3d637e73	0.055540513
249	0x3d98990d	0.07451067
250	0xbde61608	-0.11234671
251	0x3d9af2e1	0.07565857
252	0xbdac4f7b	-0.08413597
253	0x3dcc92b2	0.099889174
254	0xbd3ef24f	-0.046617802
255	0x3ccac007	0.024749769

lstm.bias_ih_l0 f4 [256]
0	0x3d925688	0.07145411
1	0xbde9053f	-0.11377954
2	0x3d60ce90	0.054884493
3	0x3c131b03	0.008978608
4	0x3d20e66b	0.039282244
5	0xbdd7a6d3	-0.10529866
6	0xbd1eb5b9	-0.038747523
7	0x3d9f1a82	0.07768728
8	0xbd8ab9d8	-0.06773728
9	0xbc089fe7	-0.008338905
10	0x3bce8e14	0.006303558
11	0xbdbb39e5	-0.09141902
12	0x3df0de4b	0.11761149
13	0xbe1e616f	-0.15466855
14	0x3bd4c0a4	0.006492691
15	0xbd6035e4	-0.054738894
16	0x3db1179c	0.08647081
17	0x3d440794	0.04785879
18	0xbde00cb7	-0.10939925
19	0xbd049c80	-0.032375813
20	0x3dcb047a	0.09912963
21	0xbce91e05	-0.028456697
22	0x3d34473d	0.04401325
23	0xbde7fb7e	-0.11327265
24	0xbd286b10	-0.041117728
25	0xbe0922be	-0.1339216
26	0xbdce622d	-0.10077319
27	0xbdde953f	-0.1086831
28	0xbd041ef1	-0.03225607
29	0x3c2d0346	0.0105598625
30	0xbe0d5fe3	-0.13806109
31	0xbd6d0fbd	-0.057876337
32	0xbbaa1921	-0.005190984
33	0x3ddbc7b7	0.10731452
34	0xbd8892da	-0.06668635
35	0xbdbbf148	-0.0917688
36	0x3c5c4e29	0.013446369
37	0xbcc9a2a1	-0.02461368
38	0xbc527e4c	-0.012847494
39	0xbd64a621	-0.055822495
40	0xbcdf146e	-0.027231421
41	0x3db5a260	0.08868861
42	0xbdf53701	-0.11973382
43	0x3d2868d5	0.0411156
44	0xbd9ca613	-0.07648864
45	0x3cc1ddaf	0.023665277
46	0xbd920629	-0.07130081
47	0xbdd5f6c6	-0.10447459
48	0x3d1f67ea	0.03891746
49	0x3ca3e966	0.020008754
50	0x3caaa344	0.020829804
51	0xbd5d0ea1	-0.05396903
52	0xba89fb07	-0.0010527082
53	0x3dabd32c	0.08389887
54	0x3dadfe21	0.08495737
55	0x3d8d3f7b	0.068968736
56	0xbd154684	-0.036444202
57	0xbd8ed2b7	-0.069737844
58	0xbbe302b8	-0.0069278143
59	0xbdd04869	-0.10170061
60	0xbd6cbc6a	-0.057796873
61	0xbc8c0f1f	-0.017097054
62	0x3d205f5c	0.03915344
63	0xbcbc71b5	-0.023003438
64	0x3d323c8d	0.043514777
65	0xbde6a427	-0.11261778
66	0x3cff68fc	0.03117799
67	0xbdacbf3d	-0.08434913
68	0xbe03df8a	-0.12878242
69	0x3a9db001	0.0012030603
70	0x3db236c1	0.0870185
71	0xbba0341a	-0.0048890235
72	0x3cdc2b1d	0.026876027
73	0xbd00a5b1	-0.031408016
74	0x3a5cc9be	0.0008422396
75	0xb9596992	-0.0002073406
76	0xbd6508cb	-0.05591659
77	0x3da74e47	0.08169227
78	0xbda35747	-0.07975631
79	0x3d247ea5	0.04015984
80	0x3d79e5e8	0.06101027
81	0xbdb39814	-0.08769241
82	0x3dd3a51f	0.10334229
83	0x3d0fab6d	0.035075594
84	0x3dc535f4	0.09629431
85	0x3b9acdac	0.004724225
86	0xbdb8cac5	-0.0902305
87	0x3d88d87b	0.066819154
88	0x3dbf1625	0.093303956
89	0x3d897de4	0.06713465
90	0x3d0f11b5	0.034928996
91	0x3bae31eb	0.0053160093
92	0xbb94df7c	-0.004543243
93	0x3df12b91	0.11775888
94	0xbda9f3d0	-0.08298457
95	0x3c35bb36	0.011091998
96	0xbc3b503c	-0.011432704
97	0x3dc2cb95	0.095114864
98	0x3d1d3fd2	0.038390942
99	0xbdac2737	-0.08405917
100	0x3d487079	0.048935387
101	0xbd8c15e6	-0.06840114
102	0x3d9cbe7e	0.07653521
103	0xbe088353	-0.13331346
104	0xbe06fe9b	-0.13183062
105	0x3d3cbf9b	0.046081167
106	0xbd64b508	-0.055836707
107	0x3cabf4c7	0.020990742
108	0x3daa167c	0.0830507
109	0xbdd05df2	-0.10174169
110	0xbcb7fd78	-0.02245973
111	0xbd53517f	-0.051591393
112	0x3d4d1749	0.050071035
113	0xbd8b7670	-0.068096995
114	0x3d86e0d5	0.06585852
115	0xbb838b80	-0.0040144324
116	0x3b79ed7c	0.0038135936
117	0xbd8b2de5	-0.06795863
118	0xbcd1303a	-0.025535692
119	0xbe00b8f0	-0.12570548
120	0xbd89d19d	-0.06729434
121	0xbd29950f	-0.04140192
122	0xbdf88891	-0.12135423
123	0xbc89c6d7	-0.016818447
124	0x3d2ed713	0.04268558
125	0xbddc11a1	-0.1074555
126	0xbc5ddc7f	-0.01354134
127	0x3da8642e	0.08222233
128	0xbd9e8f77	-0.077422075
129	0x3d0e9b01	0.034815792
130	0xbcf8b97f	-0.030361889
131	0x3dd8f9d9	0.1059453
132	0xbc18919d	-0.009312061
133	0x3dc6506a	0.096833065
134	0xbd2acfe9	-0.041702185
135	0xbdce3281	-0.100682266
136	0xba8056c3	-0.0009791482
137	0xbd747123	-0.059678208
138	0xbd843f78	-0.06457418
139	0x3dac6456	0.08417575
140	0x3dec631f	0.11542343
141	0xbd9b4a8d	-0.07582579
142	0xbdf69fc4	-0.120421916
143	0x3d03f5fa	0.032217003
144	0xbddba98f	-0.107257
145	0xbcbb57a9	-0.022868948
146	0x3d51c47c	0.051212773
147	0x3d38faae	0.04516094
148	0x3c9a7503	0.018854624
149	0x3d762144	0.06009032
150	0xbd81bb35	-0.06334535
151	0xbd2b7016	-0.04185494
152	0xbd0d912d	-0.03456228
153	0xbe057059	-0.13031138
154	0xbd8b1c8b	-0.067925535
155	0x3c1cc74a	0.009568999
156	0x3cd07dc0	0.025450587
157	0xbd57f140	-0.05272031
158	0x3da6fa49	0.08153207
159	0xbd86e246	-0.06586127
160	0x3bef0ffe	0.0072956076
161	0x3de05dc7	0.109553866
162	0x3da928c3	0.08259728
163	0x3ddc9db1	0.10772265
164	0x3d05d009	0.0326691
165	0xbda1c309	-0.07898528
166	0xbd29d9c8	-0.041467458
167	0xbd06c309	-0.032900844
168	0xbdb4936c	-0.08817181
169	0xbd37277f	-0.0447154
170	0xbdd5a007	-0.104309134
171	0xbd7290be	-0.05922007
172	0xbe011b00	-0.12607956
173	0x3df5c636	0.12000696
174	0x3c96ed69	0.018423753
175	0x3dea9386	0.11453919
176	0x3d9168bf	0.07100057
177	0x3dfa0627	0.12208205
178	0xbd126660	-0.035742164
179	0xbd84da25	-0.0648692
180	0xbd471c41	-0.04861093
181	0xbde75ba0	-0.11296773
182	0xbbab2cb8	-0.0052238367
183	0x3c93c034	0.018035986
184	0x3d6e7f56	0.058226906
185	0xbcb5d984	-0.022198446
186	0x3d272669	0.040808115
187	0x3d444dc2	0.047925718
188	0x3c0552a0	0.008137375
189	0x3d0cf28e	0.034411006
190	0xbd440d35	-0.047864158
191	0x3d879e27	0.06621962
192	0xbe005d3a	-0.12535563
193	0x3c0e7e53	0.00869711
194	0x3d5e9546	0.054341577
195	0x3d9c6f55	0.076384224
196	0x3cde0524	0.02710206
197	0xbceffade	-0.029294427
198	0x3d79e43e	0.061008684
199	0xbe14eb61	-0.14542915
200	0xbd14c9b0	-0.036325157
201	0xbd83a8b4	-0.06428662
202	0x3d90d7d8	0.07072419
203	0x3db8d868	0.09025651
204	0xbd0cf333	-0.03441162
205	0xbbb03e1a	-0.005378497
206	0xbcc2dff1	-0.023788424
207	0xbd84a236	-0.06476252
208	0x3ce8b0e8	0.028404668
209	0x3bf1a0fa	0.007373926
210	0xbd8ee19c	-0.06976625
211	0x3c16cce4	0.009204123
212	0x3dcb99ec	0.09941468
213	0xbe0e8305	-0.13917167
214	0xbd154427	-0.03644195
215	0xbdf55443	-0.11978962
216	0xbd1f1e33	-0.03884716
217	0x3ddb9f11	0.10723699
218	0x3d908908	0.07057387
219	0xbe0976f6	-0.13424286
220	0xbe001917	-0.12509571
221	0x381c328c	3.7240374e-05
222	0xbce66d07	-0.02812816
223	0x3da2b825	0.07945279
224	0xbd28122f	-0.041032966
225	0x3d9fc087	0.078003936
226	0xbdde28c7	-0.108476214
227	0xbd022d11	-0.03178126
228	0xbc357e07	-0.011077411
229	0xbdbf8071	-0.0935067
230	0xbc0cdf99	-0.008598232
231	0xbd5b5f18	-0.053557485
232	0xbdaf9f58	-0.08575314
233	0xbde6d67b	-0.11271378
234	0xbcb79883	-0.02241159
235	0x3dd92da6	0.1060441
236	0x3ccc40a9	0.024933176
237	0xbde8b7e9	-0.11363203
238	0xbd8fc99a	-0.07020874
239	0x3d98875b	0.07447692
240	0xbd77fea8	-0.060545594
241	0xbd0e64b0	-0.03476399
242	0xbdd3652f	-0.103220336
243	0x3d4bb46f	0.04973262
244	0xbde2a979	-0.110674806
245	0xbdfe3bb3	-0.124137305
246	0xbde67785	-0.11253265
247	0xbdf8187e	-0.121140465
248	0x3a8b90fc	0.0010648067
249	0x3c65ab76	0.01401793
250	0xbd5b6fba	-0.053573348
251	0x3d1179c3	0.03551651
252	0xbc28e92e	-0.010309501
253	0xbb989f2b	-0.004657646
254	0x3d7457da	0.059654094
255	0x3c8fe67d	0.01756596

lstm.bias_hh_l0 f4 [256]
0	0x3df63c28	0.12023193
1	0x3daf9d19	0.08574886
2	0xbdb2c060	-0.08728099
3	0x3dba5993	0.09099116
4	0xbd065206	-0.032793067
5	0xbc8caff6	-0.017173748
6	0xbc800b2b	-0.015630325
7	0xbe07834a	-0.13233677
8	0x3d8f0ecd	0.06985245
9	0x3d814275	0.06311504
10	0x3dec6f51	0.115446694
11	0x3acfdba0	0.00158583
12	0xbd14761a	-0.036245443
13	0xbd54efa3	-0.051986348
14	0xbd45fb30	-0.048335254
15	0xbe12dcd4	-0.14342052
16	0x3c8e9481	0.017404797
17	0xbbfa3aa1	-0.0076363836
18	0xbd3f18ed	-0.04665463
19	0xbdbaed09	-0.09127242
20	0xbd2a2deb	-0.041547697
21	0xbbb0bc02	-0.005393506
22	0x3d9d1ebb	0.07671877
23	0x3d2211c7	0.039567735
24	0x3db1f3ab	0.08689054
25	0x3db6ba65	0.08922271
26	0xbd93d643	-0.072186016
27	0xbcb59900	-0.022167683
28	0xbdee151d	-0.11625121
29	0xbd9f006b	-0.077637516
30	0x3d047f9c	0.03234826
31	0x3d058b43	0.032603513
32	0x3d4edd8d	0.050504256
33	0x3db7d52b	0.089762054
34	0x3ca171ba	0.01970755
35	0xbd915c44	-0.070976764
36	0xbd0b2bb0	-0.03397721
37	0xbcd75f81	-0.026290657
38	0x3d4bcf12	0.049758025
39	0xbdbecdcb	-0.09316596
40	0xbd93c995	-0.07216183
41	0x3d22e8c4	0.039772764
42	0x3ca6bc33	0.020353412
43	0x3ddd1059	0.10794134
44	0x3da4cf85	0.08047394
45	0xbd909d2d	-0.07061229
46	0x3d188df2	0.037244745
47	0xbdabbe42	-0.08385898
48	0xbc9b6913	-0.018971002
49	0xbcd172c5	-0.025567422
50	0xbc47e5b0	-0.012200758
51	0x3dceb6c0	0.100934505
52	0xbdfc32c1	-0.12314368
53	0x3ddfc6d6	0.10926597
54	0x3da01240	0.07815981
55	0xbd946b33	-0.07247009
56	0xbd36bfc7	-0.044616487
57	0xbd0600f2	-0.032715745
58	0x3d797277	0.060900178
59	0xbd4cad46	-0.049969934
60	0x3cba1dc7	0.022719277
61	0xbda8fa73	-0.082508944
62	0x3dc4012f	0.09570538
63	0xbcf67b55	-0.030088106
64	0x3dec0aa8	0.1152547
65	0xbdca5b77	-0.09880727
66	0xbd5bc15f	-0.05365121
67	0x3da00cc3	0.07814934
68	0x3c75e4e9	0.01500819
69	0xbd99b02c	-0.07504305
70	0xbe007dee	-0.12548038
71	0xbdf07a73	-0.11742105
72	0xbdf9ff96	-0.12206952
73	0xbdab85f3	-0.08375158
74	0xbda72021	-0.08160425
75	0xbd4bf206	-0.04979136
76	0x3ddcabd8	0.10774964
77	0xbd582c12	-0.052776404
78	0xbda1d553	-0.079020165
79	0x3d16bbac	0.03680007
80	0xbdc61e63	-0.096737646
81	0xbdad5c38	-0.08464855
82	0xbccd8fab	-0.02509292
83	0xbcfc0466	-0.030763816
84	0xbdb79f60	-0.08965945
85	0xbe141c42	-0.14463905
86	0xbe0e167a	-0.13875762
87	0xbd80b476	-0.0628442
88	0x3d63e6e3	0.055640113
89	0x3a0cb9cc	0.0005368262
90	0x3db7a849	0.08967645
91	0x3bc3f0db	0.00597964
92	0xbddb0fbb	-0.1069636
93	0x3bd75bdc	0.00657223
94	0xbd5d884c	-0.05408506
95	0x3d5c19ba	0.053735472
96	0x3cd1dbc6	0.025617491
97	0x3dd95231	0.1061138
98	0xbe146af5	-0.14493926
99	0xbd8793b7	-0.06619971
100	0xbde9904e	-0.11404477
101	0xbc886bd5	-0.01665298
102	0xbdb8c338	-0.0902161
103	0xbda38eff	-0.07986259
104	0x3dcd7242	0.100315586
105	0xbd52d67b	-0.051474076
106	0x3d25b33c	0.040454134
107	0x3d8d83ab	0.06909879
108	0x3d8fccea	0.07021506
109	0x3db2c330	0.08728635
110	0x3d902ce5	0.07039813
111	0x3ba4a4bd	0.005024521
112	0x3db4023e	0.0878949
113	0x3dcd3879	0.10020537
114	0xbe00e990	-0.12589097
115	0x3c92eb91	0.017934592
116	0x3d5bde53	0.05367882
117	0xbdb98d3c	-0.090601414
118	0x3ce8f48a	0.028436918
119	0x3d83cee8	0.064359486
120	0xbbf23ae9	-0.0073922765
121	0xbd2b332b	-0.041796844
122	0xbcdbf3da	-0.026849676
123	0x3dc06003	0.09393313
124	0xbdf5ea7e	-0.120076165
125	0x3c83c8a6	0.016086888
126	0xbd9508af	-0.07277047
127	0x3d95c8e4	0.073137075
128	0xbd59d98c	-0.053185984
129	0x3cd40a87	0.025883926
130	0x3d989924	0.07451084
131	0xbc69826d	-0.014252287
132	0xbc97edaa	-0.018545944
133	0x3dd91fb0	0.10601747
134	0x3df28892	0.11842455
135	0x3d8081c6	0.06274752
136	0xbae98933	-0.0017817378
137	0x3c62ea1c	0.013849761
138	0xbd984ade	-0.07436155
139	0x3da68cb2	0.08132304
140	0x3d637963	0.055535685
141	0x3dd8cb27	0.10585623
142	0xbd9f11dc	-0.07767078
143	0x3ccfb24f	0.025353579
144	0x3cb693bf	0.022287248
145	0xbcc8752d	-0.024469936
146	0xbc6035bd	-0.013684687
147	0x3cd21d96	0.025648873
148	0xbd0988da	-0.033577777
149	0x3dfd0d06	0.12356
150	0xbdd855f7	-0.105632715
151	0xbca0d07d	-0.019630665
152	0xbd57d945	-0.05269744
153	0x3db6da5f	0.0892837
154	0xbd2a4fad	-0.04157989
155	0xbd125132	-0.035721965
156	0x3dcc7aa7	0.099843316
157	0xbddc53dc	-0.107581824
158	0xbd409deb	-0.047025602
159	0x3de1368c	0.10996732
160	0x3db4baba	0.08824678
161	0xbd0b4b5f	-0.034007426
162	0xbcc18618	-0.023623511
163	0xbd8f234e	-0.06989156
164	0x3cb972c7	0.022637738
165	0x3d3448f5	0.04401489
166	0x3daf426b	0.0855759
167	0x3d6ce23b	0.057832938
168	0x3d89c1da	0.067264274
169	0xbc91d10c	-0.017799877
170	0xbd9cb973	-0.07652559
171	0x3d8cd258	0.068760574
172	0xbb6bb2af	-0.0035964658
173	0xbdabfac8	-0.08397442
174	0x3c21c041	0.009872497
175	0x3df3f470	0.11911857
176	0xbc323670	-0.010877237
177	0xbdd6d415	-0.1048967
178	0x3d9d98de	0.07695173
179	0x3db286e2	0.08717133
180	0xbd9aba89	-0.0755511
181	0xbddcca3e	-0.10780762
182	0xbdb2a369	-0.08722574
183	0x3d5116f3	0.051047277
184	0xbd83a14e	-0.06427251
185	0xbdf87f27	-0.121336274
186	0xbc0dcef1	-0.008655296
187	0xbd8c8e60	-0.068630934
188	0xbd5eb90b	-0.05437569
189	0xbd39e75e	-0.045386665
190	0xbd2d59a4	-0.042321816
191	0xbdaa541b	-0.08316823
192	0xbcf0a187	-0.029373897
193	0xbdadbcbe	-0.08483265
194	0xbce7c4a3	-0.028292006
195	0xbda372b3	-0.079808615
196	0xbca22629	-0.019793587
197	0x3da06a75	0.07832805
198	0xbda1bb3d	-0.07897041
199	0xbd319883	-0.043358337
200	0xbd00bb26	-0.03142848
201	0xbd712e13	-0.05888183
202	0xbdbcb000	-0.09213257
203	0x3c4579e5	0.012052988
204	0xbc441262	-0.011967273
205	0xbcc56ff1	-0.02410123
206	0xbd1b0ced	-0.037854124
207	0xbddec823	-0.10878017
208	0xbd899ae2	-0.06718995
209	0x3d2cfdf7	0.042234387
210	0x3d9d71a6	0.07687692
211	0xbd6d8206	-0.05798533
212	0x3d552def	0.05204576
213	0xbdfcd454	-0.12345186
214	0xbcc1446f	-0.023592202
215	0xbdf92a1f	-0.12166237
216	0xbccae2ec	-0.024766408
217	0x3cd066b0	0.02543959
218	0x3d8619bc	0.06547877
219	0x3ce07838	0.027401075
220	0x3d3b9fa5	0.045806546
221	0xbd0243d4	-0.031802967
222	0x3ddf7509	0.109109946
223	0xbdf275a0	-0.118388414
224	0xbd0e45d3	-0.03473456
225	0xbd152289	-0.03640989
226	0x3d4a7b23	0.04943384
227	0x3c7bcac4	0.015368167
228	0x3de8c6b7	0.11366027
229	0xbde86bdd	-0.11348698
230	0x3ce24e7d	0.027625317
231	0xbe06e202	-0.13172153
232	0x3c5816df	0.013189047
233	0xbd92cfd4	-0.07168546
234	0xbd9dc477	-0.07703488
235	0x3b6217e4	0.0034499103
236	0xbc36df4b	-0.011161636
237	0x3dd766a0	0.10517621
238	0x3dbeb8f7	0.09312623
239	0xba9af1ca	-0.0011821326
240	0x3ceb3d54	0.028715767
241	0x3b26b71c	0.0025438732
242	0xbd91f18f	-0.07126152
243	0xbdcd46fa	-0.10023303
244	0xbe01964f	-0.12654994
245	0x3bd17a93	0.006392786
246	0xbd8df8b5	-0.06932203
247	0x3dcefbe2	0.101066366
248	0xbd86b800	-0.06578064
249	0x3cea867a	0.028628577
250	0xbd985d15	-0.07439629
251	0x3ddd97e5	0.10819987
252	0x3d01713b	0.031602126
253	0x3d0a69b2	0.033792205
254	0x3ce87e7a	0.028380621
255	0xbcd37930	-0.025814623

lstm.weight_ih_l1 f4 [256, 64]
0	0xbd143b65	-0.036189456
1	0xbdb50fde	-0.08840917
2	0xbde1faac	-0.1103414
3	0xbc9cebdd	-0.019155437
4	0xbd5454b3	-0.051838588
5	0x3dba3377	0.090918474
6	0x3df2d144	0.118563205
7	0xbdd042ab	-0.10168966
8	0x3c8cf2e2	0.01720566
9	0xbdd63804	-0.10459903
10	0x3d8c56e8	0.068525136
11	0x3d96319e	0.073336825
12	0xbdb23a31	-0.087025054
13	0xbdb55498	-0.088540256
14	0xbd3cd8d2	-0.046105213
15	0x3d8a157b	0.06742378
16	0x3dbbb452	0.09165253
17	0xbd5fda3f	-0.054651495
18	0x3c4cab4c	0.012492012
19	0xbdb83ca8	-0.08995944
20	0x3dcd643d	0.100288846
21	0x3d285f5a	0.04110656
22	0xbd4dc2db	-0.050234657
23	0x3cbcad64	0.023031898
24	0x3bd572ba	0.0065139206
25	0xbd93632b	-0.07196649
26	0xbe2900c6	-0.16504201
27	0x3d8d5aba	0.0690207
28	0xbdd4ffd3	-0.10400357
29	0x3dba08da	0.090837196
30	0xbd3cd86c	-0.046104833
31	0x3d99197a	0.074755624
32	0x3d3dd355	0.04634412
33	0x3dcdaf23	0.1004317
34	0xbd581cab	-0.052761715
35	0x3d1d0739	0.038336966
36	0x3cab24b5	0.020891527
37	0xbc808395	-0.015687743
38	0x3cbe62fa	0.023240555
39	0x3c853694	0.016261376
40	0x3d3d90e8	0.04628077
41	0x3d96ff40	0.07372904
42	0xbd57fbd2	-0.05273039
43	0xbc95185f	-0.018200098
44	0xbd206848	-0.03916195
45	0xbd39c703	-0.045355808
46	0x3dbf05fb	0.093273126
47	0x3dc240c5	0.0948501
48	0x3da48cdd	0.0803468
49	0xbca41042	-0.020027284
50	0x3dacdfeb	0.084411465
51	0x3dc92385	0.09821228
52	0x3cf130a7	0.029442145
53	0x3dc6d7ff	0.09709167
54	0x3d6c5963	0.057702433
55	0xbd72924b	-0.059221547
56	0x3ccb0862	0.02478427
57	0x3d442c77	0.047893967
58	0x3c8d687d	0.017261738
59	0xbd0ee900	-0.034890175
60	0xbd9f76e9	-0.07786352
61	0xbddac43d	-0.10681961
62	0xbd6cd7ef	-0.057823118
63	0x3de3cb69	0.11122782
64	0xbced0c9c	-0.028936677
65	0xbdc7c82e	-0.09754978
66	0x3d9efb9b	0.07762834
67	0xbdd8e8f9	-0.10591311
68	0x3caafa1b	0.020871213
69	0x3dc94523	0.0982764
70	0xbd86def8	-0.06585497
71	0xbb9d3996	-0.0047981245
72	0x3de43915	0.111437
73	0x3de6c639	0.11268277
74	0x3da66052	0.081238404
75	0xbce02f31	-0.027366253
76	0x3d93886e	0.07203756
77	0x3d5ce069	0.05392495
78	0x3c41d53d	0.011830625
79	0x3de7185b	0.11283942
80	0x3d1e7314	0.038683966
81	0x3da47d33	0.08031692
82	0xbdb21169	-0.08694727
83	0x3d298755	0.04138883
84	0xbe013998	-0.12619627
85	0x3c8a1cb6	0.016859394
86	0x3d470b63	0.048594844
87	0x3da3c69d	0.07996867
88	0x3d80c086	0.06286721
89	0xbd6cb8ac	-0.057793304
90	0x3db4a811	0.088211186
91	0xbe07757a	-0.13228408
92	0x3dd00f47	0.10159164
93	0x3d43d71d	0.04781257
94	0xbca140ff	-0.019684313
95	0x3d3dc4d3	0.046330284
96	0x3d94ed5c	0.07271835
97	0xbdd56853	-0.10420289
98	0x3d935d42	0.07195522
99	0x3d06aa38	0.032877177
100	0x3e03adca	0.12859264
101	0x39f59e42	0.00046847953
102	0x3b5f5669	0.0034078604
103	0x3ce18742	0.027530316
104	0x3dcab6c4	0.09898141
105	0xbdbeaff3	-0.093109034
106	0x3d9ecb89	0.07753665
107	0x3da812b8	0.08206695
108	0xbc559b87	-0.013037569
109	0xbd9b7e7f	-0.075924866
110	0x3dc86666	0.09785156
111	0x3d938b28	0.07204276
112	0xbc151225	-0.009098564
113	0x3cd8bd48	0.026457444
114	0xbd0f832d	-0.03503721
115	0xbd896fdb	-0.06710788
116	0x3e01444a	0.12623706
117	0x3d11ee36	0.035627566
118	0x3c8d797a	0.017269839
119	0x3da64e62	0.08120419
120	0x3d98213b	0.07428213
121	0x3d807cd9	0.06273813
122	0x3d666642	0.056249864
123	0xbdc3743a	-0.09543653
124	0xbd37d1ab	-0.04487769
125	0x3dd7a030	0.105286
126	0x3cfc1226	0.030770373
127	0x3c9b6fee	0.01897427
128	0xbd9fe047	-0.078064494
129	0xbd810ccf	-0.06301271
130	0xbcdce34f	-0.026963858
131	0x3d4f28d4	0.050576046
132	0xbd46a83f	-0.048500296
133	0x3dd4c0a4	0.10388306
134	0xbda94145	-0.08264402
135	0xbcc60759	-0.024173426
136	0x3df17001	0.11788941
137	0xbd64e7fa	-0.055885293
138	0x3c9b262d	0.018939102
139	0xbd09a1be	-0.033601515
140	0x3d2ca1fe	0.042146675
141	0xbd991200	-0.07474136
142	0xbdbb68e2	-0.09150864
143	0xbd25db5f	-0.04049241
144	0x3d3fa752	0.04679043
145	0xbd24b66b	-0.04021303
146	0xbdd57a73	-0.10423746
147	0xbcfae0fb	-0.030624857
148	0xbd11fa37	-0.035639014
149	0x3ddb04da	0.10694285
150	0xbcd23f8d	-0.025665069
151	0x3d5aa8c4	0.053383604
152	0x3e0310b6	0.12799343
153	0xbdb929f2	-0.090412036
154	0x3d3f1caf	0.046658214
155	0x3cf7a77b	0.030231228
156	0x3dd84fdc	0.10562107
157	0x3c9a5f56	0.018844288
158	0x3d0afea6	0.033934258
159	0xbe036ce8	-0.12834513
160	0x3dee3036	0.11630289
161	0xbdce14f3	-0.100625895
162	0x3dbe5c3a	0.092949346
163	0xbd9defad	-0.0771173
164	0x3c825509	0.015909689
165	0x3c595488	0.013264783
166	0x3dce1b9f	0.10063862
167	0xbdf22c5a	-0.11824866
168	0x3de23335	0.11044923
169	0x3df4e7be	0.11958264
170	0x3d05077a	0.032477833
171	0x3dded904	0.10881236
172	0x3dd39eab	0.10332998
173	0xbc4380d7	-0.011932573
174	0x3da4c52a	0.080454186
175	0x3c18d183	0.009327295
176	0x3bfd9bf3	0.007739538
177	0xbdb82dff	-0.08993148
178	0xbd129b1f	-0.035792466
179	0xbd6c5eee	-0.05770772
180	0xbd92b248	-0.07162911
181	0xbd7aeab1	-0.061258975
182	0xbd79b8d7	-0.060967293
183	0x3c89e74f	0.01683393
184	0x3a905885	0.0011012709
185	0x3d7f2800	0.062294006
186	0x3d55eebc	0.052229628
187	0xbcebba49	-0.028775351
188	0x3d905a4d	0.070484735
189	0xbdacec56	-0.08443515
190	0xbd7b746c	-0.061390325
191	0x3e01fbfd	0.12693782
192	0x3d8c46f8	0.06849474
193	0x3d4f45e4	0.050603762
194	0xbdd281be	-0.102786526
195	0x3dacdc4c	0.08440456
196	0xbdc6f34a	-0.097143725
197	0x3cccd09e	0.02500182
198	0xbd853611	-0.06504453
199	0x3d4d872c	0.050177738
200	0xbd6e84a4	-0.058231965
201	0xbdf0f1cd	-0.1176487
202	0xbdc4942b	-0.09598573
203	0xbdbeb6d9	-0.09312219
204	0xbd7032d3	-0.05864222
205	0xbc80a51d	-0.015703732
206	0xbd249151	-0.040177647
207	0xbd26b50c	-0.040700004
208	0x3cbfdd25	0.02342088
209	0x3ddfca2f	0.10927235
210	0xbd5895f1	-0.05287737
211	0x3dacff65	0.0844715
212	0xbd12b8a5	-0.035820622
213	0x3db56c6f	0.08858573
214	0xbd81adf3	-0.06332006
215	0xbd79d855	-0.060997326
216	0xbcf8ab7d	-0.03035521
217	0xbcf5459e	-0.029940423
218	0xbdb32964	-0.08748129
219	0x3dc5382c	0.096298546
220	0xbdfc5473	-0.12320795
221	0x3c7e2631	0.015512035
222	0xbe0a12f6	-0.13483796
223	0xbda4bf16	-0.08044259
224	0x3c8f338e	0.017480638
225	0xbcf5ad88	-0.029989973
226	0xbccc532a	-0.024942
227	0x3c05122a	0.008122006
228	0xbd524ce7	-0.05134287
229	0xbdda95d9	-0.106731124
230	0xba8fc601	-0.0010969044
231	0x3ce49a24	0.027905531
232	0x3daf86b1	0.08570612
233	0xbd9dd8de	-0.0770738
234	0xbda33720	-0.07969499
235	0xbde68136	-0.11255114
236	0x3d1b1094	0.037857607
237	0xbdee936c	-0.11649212
238	0x3deab6b3	0.11460628
239	0x3d2d1761	0.042258624
240	0x3dace319	0.08441753
241	0xbd221ee8	-0.039580256
242	0x3dbbaf03	0.0916424
243	0xbd5171fd	-0.0511341
244	0xbc424e4e	-0.01185949
245	0x3dd2acae	0.10286842
246	0xbd9dcd4d	-0.07705174
247	0xbd4fc2ce	-0.05072289
248	0x3c8a2503	0.016863352
249	0x3d51cee1	0.051222686
250	0xbd130207	-0.035890605
251	0xbdd2823e	-0.10278748
252	0xbccf42a3	-0.02530033
253	0x3d6de9b1	0.058084194
254	0xbdabf839	-0.08396954
255	0xbdc85d1e	-0.09783386

lstm.weight_hh_l1 f4 [256, 64]
0	0x3d5a9655	0.053366024
1	0x3da4949b	0.08036157
2	0xbd4d2453	-0.05008347
3	0xbdb653ae	-0.089026794
4	0x3df291b6	0.118441984
5	0xbd35502b	-0.044265907
6	0x3d9db217	0.076999836
7	0xbe10a547	-0.14125548
8	0xbd8fced1	-0.07021869
9	0x3c9b8220	0.018982947
10	0x3e12e5ee	0.14345524
11	0xbd35c36e	-0.04437583
12	0x3dcd3e2b	0.10021623
13	0xbd0e9ffe	-0.03482055
14	0x3dd8bf4c	0.10583362
15	0xbda7c065	-0.08190993
16	0x3c87cbb5	0.016576627
17	0x3c883d6d	0.016630853
18	0x3d9ba5c1	0.075999744
19	0xbdea08da	-0.114274696
20	0xbd06d4d9	-0.03291783
21	0x3dcaacf2	0.09896268
22	0xbd888918	-0.066667736
23	0x3dc96444	0.09833577
24	0xbdd0de1b	-0.10198613
25	0xbd66b769	-0.056327257
26	0x3db0ec93	0.08638873
27	0x3d90f284	0.07077506
28	0x3dc0ccab	0.09414037
29	0xbdc0a8bb	-0.09407183
30	0x3d19b84d	0.03752928
31	0xbdd2b7d3	-0.10288968
32	0x3b587e3e	0.003303423
33	0xbdfa766a	-0.12229617
34	0x3d7b8c3d	0.06141304
35	0xbddecc4d	-0.10878811
36	0x3da8fabc	0.08250949
37	0x3dba8e32	0.09109153
38	0xbdda17c3	-0.106490634
39	0xbd5f393b	-0.05449794
40	0x3d055d65	0.03255977
41	0xbd8b32c2	-0.06796791
42	0x3df957df	0.12174963
43	0x3e03fd7e	0.12889668
44	0xbdb9b34e	-0.09067403
45	0xbd27fe80	-0.041014194
46	0xbd9ec3e9	-0.07752211
47	0xbce1c0f8	-0.027557835
48	0x3ce04748	0.02737774
49	0x3e019f0e	0.12658331
50	0x3d1c178f	0.038108405
51	0x3d88658e	0.06659995
52	0x3dcce533	0.10004654
53	0x3d6226e4	0.05521287
54	0x3c224f44	0.009906594
55	0x3d1cfe72	0.038328595
56	0xbdc3ce3c	-0.095608205
57	0xbe046327	-0.12928449
58	0xbd80d016	-0.06289689
59	0xbd260a46	-0.04053714
60	0xbda14a80	-0.07875538
61	0xbd1f21fa	-0.038850762
62	0x3e006a30	0.12540507
63	0xbce6ba35	-0.028164962
64	0xbddf0430	-0.108894706
65	0x3d3c6fe2	0.046005137
66	0xba82404d	-0.0009937376
67	0x3d1d1447	0.038349416
68	0xbd42133a	-0.047381617
69	0x3d3fcdaa	0.046826996
70	0xbc2f821f	-0.010712176
71	0xbdf2a55a	-0.118479446
72	0x3ca404c6	0.020021807
73	0xbd0b3b98	-0.03399238
74	0x3d56d800	0.052452087
75	0xbdcdce69	-0.10049135
76	0x3db2cae8	0.087301075
77	0xbcd0af0d	-0.025474096
78	0xbdcb1550	-0.099161744
79	0xbd9d9780	-0.07694912
80	0xbdf84f2b	-0.12124475
81	0x3d35fa2f	0.044428047
82	0x3dc3ecf0	0.095666766
83	0x3d785504	0.060627952
84	0x3de0369f	0.10947918
85	0xbc925a3f	-0.017865298
86	0x3d1f0292	0.03882081
87	0xbb22decd	-0.0024852038
88	0x3d61bc94	0.055111483
89	0x3dbcecc2	0.092248455
90	0x3cf25596	0.029581826
91	0x3d89a6d8	0.06721276
92	0xbe011660	-0.12606192
93	0xbd301096	-0.042984568
94	0x3cca93cd	0.02472868
95	0xbdc3b167	-0.09555321
96	0xbd93ac14	-0.07210556
97	0x3caf5267	0.021401597
98	0x3dda8b8c	0.10671148
99	0xbddd4fd2	-0.1080624
100	0x3ca4c614	0.020113982
101	0x3df8efcd	0.12155113
102	0xbd1edbfc	-0.038784012
103	0xbdd75676	-0.10514538
104	0x3dc24e5f	0.09487604
105	0xbd6b7eb9	-0.0574939
106	0xbda21221	-0.07913614
107	0xbd247c77	-0.04015776
108	0x3d2ee528	0.04269901
109	0xbc1e9ace	-0.009680463
110	0x3d84ee5f	0.06490778
111	0xbd8df039	-0.069305845
112	0xbb4f1fef	-0.0031604727
113	0x3db25721	0.08708025
114	0xbd13ba55	-0.036066372
115	0xbc0ed7dd	-0.008718458
116	0xbdf81e1c	-0.12115118
117	0x3df6caea	0.120504215
118	0xbd9d5f7d	-0.076842286
119	0x3bb024fd	0.005375503
120	0xbdb5d35b	-0.088782035
121	0xbdba067e	-0.090832695
122	0x3dd321a8	0.10309154
123	0xbdebda1a	-0.11516209
124	0x3dca8de8	0.09890348
125	0xbdefcc51	-0.11708892
126	0x3d2e2fe2	0.042526133
127	0x3db878ea	0.090074375
128	0x3bc951db	0.006143791
129	0x3d981bf1	0.074272044
130	0xbd9216fe	-0.07133292
131	0x3cb79282	0.022408728
132	0x3cb070a5	0.021538088
133	0xbb17c52f	-0.0023158302
134	0x3d2c05b2	0.04199762
135	0x3da4f3af	0.080542915
136	0xbd647acb	-0.055781167
137	0x3ce30f88	0.027717367
138	0xbcbdc9e2	-0.023167554
139	0xbc2f50f0	-0.010700449
140	0xbd8f735c	-0.07004425
141	0xbda5fa52	-0.081043854
142	0x3db9d9d5	0.09074751
143	0xbdaace78	-0.08340162
144	0x3a8ab386	0.0010582067
145	0x3dff7db9	0.124751516
146	0x3dcbb67a	0.09946914
147	0xbe04f3a2	-0.12983564
148	0xbd214d8b	-0.03938059
149	0x3d813d5a	0.0631053
150	0x3df50e79	0.11965651
151	0xbc0c6383	-0.008568647
152	0xbcf88214	-0.030335464
153	0xbdca2cc0	-0.09871817
154	0x3d047756	0.03234037
155	0xbb51fa1b	-0.0032039944
156	0xbd83cecb	-0.06435927
157	0xbe009c71	-0.12559678
158	0x3b6b4836	0.0035901195
159	0x3de69347	0.1125856
160	0xbce34bab	-0.027746042
161	0x3ce8aa58	0.028401539
162	0x3dfad537	0.12247699
163	0x3d4042cc	0.046938702
164	0xbd623232	-0.05522365
165	0xbd065d95	-0.03280409
166	0x3d9a4f4c	0.07534656
167	0xbd701583	-0.058614265
168	0x3d8f295e	0.06990312
169	0x3db239fd	0.08702467
170	0xbd1e8dfe	-0.038709633
171	0x3d0cd297	0.03438052
172	0x3dd41e6a	0.103573635
173	0x3db75220	0.08951211
174	0x3dc97608	0.09836966
175	0xbc73a42d	-0.0148706855
176	0x3dfd093d	0.12355278
177	0x3af2c9c5	0.0018523267
178	0x3c97feaf	0.01855406
179	0x3d0b5e58	0.03402552
180	0x3df0065c	0.11719963
181	0x3da3e112	0.08001913
182	0x3b83b4b5	0.0040193447
183	0x3cdc8dad	0.026923025
184	0xbdd3c291	-0.10339845
185	0x3dc78bc7	0.09743457
186	0xbd7b5803	-0.06136323
187	0xbbd83353	-0.006597915
188	0x3cef2cbe	0.02919614
189	0xbd0c4108	-0.034241706
190	0xbd074520	-0.033024907
191	0x3d0e3764	0.034720793
192	0x3dc80ae3	0.097677015
193	0xbdc7fab2	-0.09764613
194	0x3cbf29df	0.023335395
195	0x3b7e074a	0.003876167
196	0x3dd31357	0.10306423
197	0xbdf4d059	-0.11953802
198	0xbd300e9f	-0.042982694
199	0xbd8b0624	-0.067882806
200	0xbd9275c4	-0.07151368
201	0x3da17551	0.078837045
202	0x3de5023f	0.11182069
203	0x3d2f89ad	0.042855907
204	0xbd62aa24	-0.05533804
205	0xbdc5e0ad	-0.09661994
206	0x3deae3da	0.114692405
207	0xbcbde1fd	-0.023179049
208	0xbbafa53a	-0.0053602727
209	0x3dffd384	0.12491515
210	0x3d841aa6	0.06450395
211	0x3d6d4c46	0.05793407
212	0xbcb81f07	-0.022475732
213	0xbca7e3ed	-0.020494426
214	0x3d0fe5f9	0.03513143
215	0xbbf19914	-0.0073729847
216	0xbdaeb781	-0.08531094
217	0x3c8d3059	0.017234968
218	0x3db32b66	0.08748512
219	0x3dd6063b	0.10450407
220	0x3d99f262	0.07516934
221	0xbd357dce	-0.04430943
222	0xbd31cd25	-0.04340853
223	0x3d58c39a	0.052920915
224	0xbdcfb329	-0.10141594
225	0xbd97c120	-0.074098825
226	0x3d41ae3e	0.04728531
227	0xbdbd26d0	-0.092359185
228	0xbcf4d8ec	-0.029888593
229	0x3d216fbe	0.039413206
230	0xbdc01b1a	-0.09380169
231	0xbcd1abd9	-0.025594639
232	0x3dbf3b59	0.093374915
233	0xbd92df25	-0.07171468
234	0xbc72cad1	-0.014818863
235	0x3db8fd0a	0.09032638
236	0xbd1666c5	-0.036719102
237	0x3dd9dfb4	0.10638371
238	0x3ced5ca9	0.028974848
239	0x3da2fedd	0.079587676
240	0xbcb5e931	-0.02220592
241	0x3cdaef15	0.026725331
242	0x3d99e834	0.07514992
243	0x3d169845	0.03676631
244	0x3d97bf9f	0.07409596
245	0xbe034baf	-0.1282184
246	0x3d542b53	0.05179913
247	0xbe05d758	-0.13070428
248	0x3d134fd6	0.03596481
249	0x3d11edfd	0.035627354
250	0xbda3197f	-0.07963847
251	0x3d9dbe99	0.07702369
252	0xbdbe090e	-0.09279071
253	0x3d4b9e5b	0.049711566
254	0x3de39a64	0.11113432
255	0xbcd0f608	-0.025507942

lstm.bias_ih_l1 f4 [256]
0	0xbd16f004	-0.03684999
1	0xbdd9bcd4	-0.10631719
2	0xbdb53345	-0.088476695
3	0x3df3514e	0.11880742
4	0xbc68404f	-0.014175489
5	0xbdf40e94	-0.11916843
6	0xbbb6b326	-0.0055755554
7	0x3c5c7e46	0.01345784
8	0xbc07f919	-0.008299136
9	0x3db36753	0.08759942
10	0xbd74f21b	-0.059801202
11	0x3da8483c	0.082169026
12	0xbd8a0e20	-0.067409754
13	0xbde5b2dd	-0.11215756
14	0xbe006c8a	-0.12541404
15	0x3cc54398	0.024080083
16	0x3d665ee2	0.05624283
17	0xbd040469	-0.03223077
18	0x3d5b9061	0.053604487
19	0xbd6fb504	-0.05852224
20	0xbb3ec43a	-0.002910866
21	0xbda6ed23	-0.08150699
22	0x3dba3b32	0.09093322
23	0x3d466667	0.048437502
24	0xbd99e340	-0.075140476
25	0x3d072cdb	0.033001762
26	0xbd8be810	-0.06831372
27	0xbdb0e8b1	-0.08638132
28	0xbde854dd	-0.113443114
29	0xbdec0da3	-0.115260385
30	0x3dc9f636	0.09861414
31	0x3d74273d	0.059607733
32	0x3d8ebd73	0.06969728
33	0x3dd1761d	0.102276064
34	0xbd9a9f4d	-0.075499155
35	0xbca55dae	-0.020186272
36	0x3d0908b1	0.033455554
37	0xbde464fa	-0.11152072
38	0xbd8c8f98	-0.06863326
39	0x3d36fe13	0.044675898
40	0xbd43e0f2	-0.047821946
41	0x3de6b80b	0.11265572
42	0x3a96c60b	0.0011503113
43	0xbd1f4e62	-0.03889311
44	0xbdc566d0	-0.096387506
45	0xbde1fe44	-0.110348254
46	0xbd62905a	-0.055313446
47	0xbd639d9a	-0.055570222
48	0x3d8e3cf6	0.06945221
49	0x3bfed612	0.007776984
50	0x3db3f77f	0.087874405
51	0x3da46b74	0.080283076
52	0xbbd778a0	-0.006575659
53	0xbc2f4f88	-0.010700114
54	0x3c691885	0.014227037
55	0xbd0d192e	-0.03444784
56	0x3db47aa9	0.08812458
57	0x3d2c00bf	0.0419929
58	0xbcba9d33	-0.022780037
59	0x3dba3f61	0.0909412
60	0x3d982542	0.07428981
61	0x3ca4443a	0.020052064
62	0xbd2f6bf9	-0.04282758
63	0xbd8d541c	-0.06900808
64	0x3d972186	0.07379441
65	0xbd92baed	-0.071645595
66	0xbc8d9025	-0.017280648
67	0x3c826765	0.015918443
68	0x3d09bc24	0.03362669
69	0xbc70d99c	-0.01470032
70	0xbde197c9	-0.11015279
71	0xbde28236	-0.11059992
72	0xbdf29e21	-0.11846567
73	0xbcc183e6	-0.023622464
74	0xbce53684	-0.027980097
75	0x3d399c12	0.045314856
76	0xbd7c6420	-0.061618924
77	0x3d9cb055	0.0765082
78	0x3cc1d9c1	0.023663403
79	0xbdefac15	-0.11702744
80	0x3dfbeeeb	0.12301429
81	0xbdfb20b7	-0.12262099
82	0x3d717d3f	0.058957335
83	0x3c9fe302	0.019517425
84	0x3a817f86	0.0009879924
85	0x3c33db28	0.010977544
86	0x3d5b2d12	0.05350978
87	0x3daddd2e	0.08489452
88	0xbde2f5f3	-0.11082067
89	0xbda1a5b4	-0.078929335
90	0xbd7bcd10	-0.06147486
91	0xbd4b9e0a	-0.049711265
92	0x3cdcd932	0.026959036
93	0xbd3a0e19	-0.0454236
94	0x3cf1b880	0.029506922
95	0xbd7cabae	-0.061687164
96	0x3d7d7bdb	0.061885696
97	0xbcb27b1e	-0.021787222
98	0x3d9c8288	0.07642084
99	0x3d893003	0.06698611
100	0x3d9bf23f	0.07614564
101	0xbdd7e1c1	-0.10541106
102	0x3da082d0	0.078374505
103	0xbd135fa2	-0.035979874
104	0x3dbd1968	0.092333615
105	0xbdc6ef29	-0.09713585
106	0xbd8aeefc	-0.06783864
107	0xbdfe706f	-0.12423789
108	0x3daa611e	0.08319305
109	0x3d1a8077	0.03772017
110	0xbc1916fe	-0.009343861
111	0x3d89447a	0.06702514
112	0xbd773669	-0.060354624
113	0x3d9635da	0.0733449
114	0xbd02031e	-0.031741254
115	0x3d898f6b	0.06716808
116	0xbcd0ac37	-0.025472743
117	0x3d195b48	0.03744057
118	0xbdd92070	-0.1060189
119	0x3dcf3ad8	0.101186454
120	0x3d214abb	0.03937791
121	0x3c15b4d1	0.009137348
122	0x3dca9286	0.098912284
123	0x3d2d201b	0.042266946
124	0xbd0cc611	-0.03436858
125	0x3a8273ad	0.0009952687
126	0xbdcf37a5	-0.10118035
127	0xbd543256	-0.051805817
128	0x3c2acde5	0.010425066
129	0xbde2e57e	-0.110789284
130	0x3da51775	0.08061115
131	0xbc5f9bb7	-0.013647965
132	0x3bc7917f	0.0060903425
133	0x3dad078e	0.084487066
134	0x3d38325a	0.044969894
135	0x3cdb3e59	0.026763128
136	0xbbc9e941	-0.0061618392
137	0x3de38068	0.11108476
138	0xbd1be8c7	-0.03806379
139	0xba1a1c33	-0.0005878836
140	0xbde60e7c	-0.112332314
141	0x3d81a667	0.06330567
142	0xbc2795ac	-0.010228556
143	0xbdaf5c4b	-0.08562525
144	0x3de3feec	0.11132607
145	0xbcd285d0	-0.025698572
146	0x3d576a40	0.052591562
147	0x3b4557ca	0.003011214
148	0x3d05a110	0.032624304
149	0x3de55c0e	0.11199199
150	0x3cf7f58c	0.030268453
151	0xbdc042ff	-0.093877785
152	0xbc470eae	-0.012149496
153	0x3d7645a7	0.06012502
154	0x3d97d56f	0.07413756
155	0x3de3bfe0	0.111205816
156	0x3dd02e4c	0.101650804
157	0x3a733c0c	0.0009278662
158	0x3dbd2d45	0.0923715
159	0xbcc40c4e	-0.023931649
160	0xbccbd183	-0.024880176
161	0xbdf10d6f	-0.117701404
162	0x3d91c233	0.07117119
163	0xbde0722a	-0.10959275
164	0x3ae24ae2	0.0017264748
165	0xbcb98ea4	-0.022651024
166	0x3dec9b42	0.115530506
167	0xbd645288	-0.05574277
168	0xbd502f8d	-0.050826598
169	0xbd4b844d	-0.04968672
170	0x3da2ed79	0.079554506
171	0x3caac0b2	0.020843837
172	0x3df2f0e7	0.11862355
173	0x3c178c8f	0.00924982
174	0x3c0fed21	0.008784563
175	0xbdad5374	-0.08463183
176	0x3dec1eab	0.11529287
177	0xbd0dfc52	-0.03466446
178	0xbdb9d854	-0.090744644
179	0x3d9d8d9a	0.07693024
180	0xbdb84aae	-0.08998619
181	0x3d63370f	0.05547243
182	0xbd1039e5	-0.035211463
183	0xbd7b9b7a	-0.06142757
184	0xbc8c5c95	-0.01713399
185	0x3d87aeeb	0.0662516
186	0xbdab56f2	-0.08366193
187	0x3dcbf058	0.09957951
188	0xbcc20e38	-0.02368842
189	0xbd1620cd	-0.036652375
190	0x3da73ff5	0.08166496
191	0x3d8cf97d	0.068835236
192	0x3dc4235d	0.095770575
193	0x3d9054ae	0.07047401
194	0x3dfc5381	0.123206146
195	0x3dcb0236	0.09912531
196	0x3d3d0d4c	0.04615526
197	0x3d0aeb36	0.03391572
198	0x3dbafeec	0.09130654
199	0xbda66b4e	-0.081259355
200	0x3c651ad8	0.013983451
201	0x3cbe3e54	0.02322308
202	0x3d528683	0.05139781
203	0x3d33b581	0.043874267
204	0xbc32c85a	-0.010912025
205	0x3c67ad5a	0.014140451
206	0x3caa8077	0.02081321
207	0xbd79f2c6	-0.061022542
208	0x3d996848	0.07490593
209	0xbd48502f	-0.048904594
210	0xbbb40d54	-0.005494753
211	0xbdd5d20f	-0.10440456
212	0xbababe37	-0.0014247362
213	0x3ddd4cd9	0.10805673
214	0xbcfe370e	-0.031032111
215	0xbdb44777	-0.08802693
216	0x3df1df96	0.11810224
217	0x3d2f302e	0.042770557
218	0x3d2c611d	0.042084802
219	0x3d95efaa	0.07321103
220	0xbd832d54	-0.0640513
221	0x3db1d15b	0.086825095
222	0x3d94a2fa	0.07257648
223	0xbcc36457	-0.023851557
224	0x3cb98320	0.022645533
225	0x3dc9309b	0.09823724
226	0xbbb08cca	-0.005387877
227	0xbd3e3fa2	-0.046447404
228	0x3db31183	0.087435745
229	0x3dff0ee0	0.12454009
230	0xbdda5c2c	-0.10662112
231	0xbc1cf033	-0.009578752
232	0x3da92311	0.082586415
233	0x3da2f747	0.07957321
234	0x3df297c9	0.11845357
235	0x3c80c28b	0.015717765
236	0x3c25045b	0.010071839
237	0xbca307bf	-0.019901155
238	0x3d9c9059	0.0764472
239	0x3db7d79d	0.08976672
240	0xbd6571e6	-0.056016825
241	0xbcdf7cc4	-0.027281173
242	0x3d619658	0.05507502
243	0xbd95e72b	-0.073194824
244	0xbd9864da	-0.07441111
245	0xbd5365b4	-0.051610664
246	0xbd8976a4	-0.06712082
247	0xbc6f854f	-0.014619186
248	0xbde39a06	-0.11113362
249	0x3d19d3ab	0.037555378
250	0x3dac8466	0.084236905
251	0x3d5fdf8e	0.054656558
252	0x3dc1947a	0.09452148
253	0xbe06361c	-0.13106579
254	0x3dc9092f	0.09816205
255	0xbd641451	-0.055683438
