best_small_lstm.pt (torch, 221765 bytes, 9 tensors)

lstm.weight_ih_l0 f4 [256, 16]
000000 de ff ff b9 54 4d b6 3c 4b 5a 0d 3c 33 72 8c 3a
       -0.00048828026 0.02225367 0.008627485 0.0010715186
000010 d5 e5 e8 3c 57 7e 4b 3b 04 93 89 3b 4a 48 77 bb
       0.028429905 0.0031050646 0.004198434 -0.0037732297
000020 c5 b7 14 3b 38 31 65 bd ce ff 16 3d 5b be 9b bc
       0.0022692543 -0.05595514 0.036865048 -0.019011667
000030 5d 69 73 bb 72 60 1a 3c 04 bb 9b 3b cd 61 17 3d
       -0.0037141659 0.009422408 0.0047525186 0.036958504
000040 93 fb d6 3a b6 8d 9b 3c 84 8d 49 bc 39 1c 6a 3c
       0.0016401879 0.018988471 -0.012301806 0.014288955
000050 bb 8a 72 ba 0f d0 e7 b8 cc b8 e0 b9 77 f0 ad ba
       -0.000925224 -0.00011053692 -0.00042862294 -0.0013270517
000060 7e af ea b9 f6 d5 5d 3c c6 9e c7 3c 8b b7 3d bb
       -0.0004476271 0.013539782 0.024367701 -0.0028948511
000070 04 da 07 3c 4a d0 e5 39 b1 f8 63 3c ae 24 6c ba
       0.008291725 0.0004383347 0.013914273 -0.0009008151
000080 d9 77 6a 39 59 0e 36 b8 68 29 13 3d d9 86 59 bc
       0.00022360626 -4.3405544e-05 0.03592816 -0.013276779
000090 47 4c 09 bb 35 01 96 39 2e bd 11 b8 dc 74 12 bc
       -0.0020950006 0.0002861113 -3.474688e-05 -0.008938994
0000a0 cf ef 9c bb ab c1 0d 3c d7 e0 68 bd 23 fd a6 3b
       -0.0047893296 0.008652131 -0.05685505 0.005096094
0000b0 c6 31 16 3d 1d f5 84 3c 9e 8c 01 3b 20 0b 06 3c
       0.03666856 0.01623016 0.0019767652 0.008181363
0000c0 8f 22 0e 39 d9 b8 be bb 1e a2 39 bd 28 c2 c3 bc
       0.0001355505 -0.0058203754 -0.045320623 -0.023896292
0000d0 85 5d 0c 3d 25 5f e8 b9 a9 e9 52 b9 34 99 d9 bb
       0.034268875 -0.00044321376 -0.00020114206 -0.0066405777
0000e0 a6 0b 23 bc 23 db 36 bd 70 57 04 bd 52 78 e1 3c
       -0.009951508 -0.04464258 -0.03230995 0.027523194
0000f0 66 f3 22 3d e5 e4 99 3d e9 e3 83 3d 22 9f 62 bb
       0.039782904 0.07514361 0.06439955 -0.0034579714
000100 81 3f 15 3a 88 a9 99 3c 57 8e 92 bb ce 3d 63 3a
       0.0005693362 0.018757597 -0.0044725346 0.00086685724
000110 01 33 be bc 4d 8a 93 37 7f 98 cd b6 35 48 87 ba
       -0.02321768 1.7588167e-05 -6.127229e-06 -0.0010321202
000120 2c 0c 26 3c cf c9 85 bb 7a 76 cc bc 13 eb 15 bb
       0.010134738 -0.0040828953 -0.024958838 -0.002287571
000130 95 54 4b bb a6 40 c0 3a 5c a1 12 bc 8e de 02 3b
       -0.0031025757 0.0014667704 -0.008949604 0.0019969079
000140 93 82 26 b8 62 61 be 3c 57 ec 2b bc 7b ab 9e 3c
       -3.969909e-05 0.023239795 -0.0104933595 0.019368878
000150 b1 a1 4f bb 56 cb ae 37 eb 19 36 38 9e 13 90 3a
       -0.003168207 2.0837102e-05 4.341632e-05 0.0010992175
000160 32 c9 4e 3c fb 28 8e bc 50 2f fb b9 bc 41 af 3b
       0.012621211 -0.017353525 -0.000479097 0.0053484123
000170 fb 7d 87 3d 75 8c f3 bc 57 2c e9 bc 18 53 81 bb
       0.06615826 -0.029730061 -0.028463526 -0.003946673
000180 22 5b 1c b9 d3 ad 8b 3b cb 87 ef bc 01 8a 45 bd
       -0.00014911269 0.004262665 -0.029239556 -0.048227314
000190 c0 a7 7d bd b7 31 85 b8 fb 01 93 38 09 24 e7 ba
       -0.061927557 -6.351194e-05 7.009875e-05 -0.0017634641
0001a0 88 74 04 ba d1 67 8b 3b 32 24 ab bc fc 52 33 bc
       -0.0005052765 0.0042543192 -0.020891283 -0.010945078
0001b0 a6 8f 12 3c 41 d7 30 3a 83 3b 22 3d 30 ab 80 3c
       0.008945381 0.00067459425 0.039607536 0.015706629
0001c0 a3 d2 9b b8 46 a7 ae bd 7e 16 0e bc 40 7a 75 3d
       -7.43021e-05 -0.085279986 -0.008672355 0.05993104
0001d0 56 92 93 b9 ea 61 65 b8 38 ce 88 ba 66 1f f6 39
       -0.00028147054 -5.4689044e-05 -0.0010437435 0.0004694417
0001e0 00 92 14 bb 8c 1b 6b bb 9c 24 00 bc 7b 95 3c 3b
       -0.002267003 -0.0035874574 -0.007821228 0.002877562
0001f0 52 3c 6a bd ef 1e 00 3d 04 03 ad 3c bf b2 d8 3c
       -0.057186432 0.0312795 0.021119602 0.02645242
000200 6e de 9a 39 85 bf 40 bc bb 87 a3 3b 33 fb 24 ba
       0.00029538892 -0.011764412 0.0049905456 -0.0006293535
000210 04 0e 1f 3a 2e a0 88 39 9a ee 91 39 d9 77 ab ba
       0.0006067457 0.00026059285 0.00027834327 -0.0013081982
000220 bb 3b cc ba de 9d 27 3d 7d 67 f9 3b 14 ac a2 39
       -0.0015581766 0.04092204 0.0076112137 0.00031027256
000230 95 26 54 bb c4 eb 80 3b ad c4 37 bb 58 48 12 bb
       -0.003237163 0.0039343555 -0.0028040812 -0.0022320952
000240 28 62 a4 38 4c 34 86 3a 39 7d 0d 3b 07 92 d2 3a
       7.8384124e-05 0.0010238974 0.002158953 0.0016065248
000250 2a e1 cb 3b a9 69 82 b8 b8 6e 4e 3a 24 e4 53 ba
       0.00622191 -6.218564e-05 0.0007874775 -0.0008083007
000260 8d d0 1f ba 14 7a 09 bc 42 ad ac 3b a0 8b 64 ba
       -0.0006096445 -0.008390922 0.0052696774 -0.00087183155
000270 73 d3 82 b9 6c 83 9a 39 6a c1 0d ba 68 be 8c bb
       -0.00024953074 0.00029471086 -0.0005407544 -0.004295159
000280 56 df 5c 39 96 b9 f3 3b 42 77 9b 3b 6c 3b 76 bb
       0.00021064034 0.007437895 0.0047444412 -0.003757204
000290 93 5c 2d 3a c0 e6 3b b9 29 c3 a5 39 c6 43 2b ba
       0.0006613221 -0.00017919671 0.00031616658 -0.00065332314
0002a0 e6 5c 2b bb bc ca 21 3c 0e b5 a0 bc af 10 08 bb
       -0.00261479 0.009874996 -0.019617584 -0.0020761897
0002b0 cb 63 8c 3c 8a 87 52 ba 6c 2d 1e 3d e5 20 15 bc
       0.017137429 -0.0008031061 0.038617536 -0.009102081
0002c0 02 8b a4 ba f1 a1 8a bd 0c ad 4b 3d 98 25 e9 bc
       -0.0012553635 -0.06769169 0.049725577 -0.028460309
0002d0 7a 66 25 3d 79 a9 d5 38 3f dc a7 b8 70 01 43 ba
       0.040380932 0.00010188198 -8.0042046e-05 -0.0007438874
0002e0 0e 48 2d bc 11 b4 2f 3d 9c 53 e6 bc 55 fc 96 3c
       -0.010576261 0.042896334 -0.02811604 0.018430868
0002f0 45 9c 13 bd f9 e0 e4 bc 7c bc 31 bd f7 45 53 bd
       -0.036037702 -0.027939307 -0.043392643 -0.051580396
000300 7d c1 cd b6 0f 26 15 ba 8d 9a d9 b9 8e f1 d8 38
       -6.132001e-06 -0.000568957 -0.00041504615 0.00010344676
000310 b5 69 1a 3c 38 7b 12 ba 91 52 e0 b8 6b 9f 8e b9
       0.009424617 -0.0005587819 -0.000106965315 -0.00027203126
000320 c3 dc 15 ba 41 c7 8a bb 78 33 5b bc 99 f3 8d b9
       -0.0005716795 -0.0042351787 -0.01337897 -0.0002707511
000330 ac 56 5a ba c4 41 4c ba fd 41 98 3c 5e 19 46 3b
       -0.0008328955 -0.0007791782 0.018586153 0.0030227522
000340 9a 30 69 38 21 ad 97 bc 18 12 08 bd 8c c7 d9 ba
       5.5596793e-05 -0.018515171 -0.03322038 -0.0016615256
000350 e8 8d c2 3b 0a ff ea 36 be 69 4b b8 c8 fe 3a ba
       0.0059373267 7.003434e-06 -4.849745e-05 -0.0007133302
000360 11 eb 8f b9 b6 37 09 bc 89 7e 5e 3c a9 3f 85 3c
       -0.00027450224 -0.008375099 0.013579973 0.016265707
000370 ec d2 1e 3c 13 1d 9f 39 76 9d 92 3c 58 dc 93 ba
       0.009693842 0.00030348505 0.017897349 -0.0011280878
000380 42 6d fe b6 74 5a c3 ba 15 d7 b3 ba 69 d8 83 b9
       -7.582509e-06 -0.0014904276 -0.0013720716 -0.00025147505
000390 b7 b9 02 38 ad e8 a8 38 97 11 8a ba 92 9d 37 b9
       3.1167376e-05 8.0542035e-05 -0.0010533807 -0.0001751094
0003a0 71 59 91 b9 1c 22 9b b8 b0 99 87 b9 a6 7e dd b9
       -0.00027723194 -7.397329e-05 -0.00025863713 -0.00042246765
0003b0 34 4b 1b ba c9 c6 2e ba 32 68 5e 39 8f 8b 08 3a
       -0.0005923987 -0.00066671945 0.00021210386 0.0005208784
0003c0 00 67 b2 36 04 77 98 ba 54 29 fd b8 33 0b 8c ba
       5.316804e-06 -0.0011632149 -0.00012071678 -0.001068449
0003d0 f0 4c f1 37 bb 41 cf b9 bd 6f 50 b9 6b 30 27 3b
       2.8765266e-05 -0.0003953109 -0.00019878052 0.0025511037
0003e0 5f fd ab ba e8 40 62 3a 05 b8 e4 b9 37 1a 66 3a
       -0.0013121775 0.00086308876 -0.00043624654 0.000877771
0003f0 c6 86 e3 b9 42 86 f9 39 c6 0e 0d 3b 35 cf ac 39
       -0.00043397228 0.0004759301 0.0021523698 0.00032960778

lstm.weight_hh_l0 f4 [256, 64]
000000 78 7b 75 bc b8 8e 85 b6 da 43 26 3b 1a 98 ae b6
       -0.0149830505 -3.9803235e-06 0.0025370033 -5.203311e-06
000010 3a 26 c8 3a f9 35 e0 b9 0e 92 04 ba 67 0b 65 3a
       0.0015270181 -0.00042764822 -0.0005057164 0.0008737356
000020 f0 a1 cb 3a eb a4 eb 3b 9e c8 40 bb 24 f0 31 ba
       0.0015535932 0.0071912906 -0.0029416452 -0.0006787798
000030 bd d3 ff b9 a0 bf d0 39 b6 48 95 39 e4 c7 ed 3b
       -0.00048795147 0.00039815623 0.00028473668 0.007256495
000040 ee d8 e5 39 20 7c c2 b9 23 a1 f3 39 d3 85 01 3b
       0.0004383991 -0.00037095044 0.00046468628 0.0019763603
000050 71 ba 93 b9 f3 72 36 bb 1a 09 31 39 5e b1 96 37
       -0.00028176935 -0.0027839511 0.00016883426 1.7963986e-05
000060 43 e8 61 3a ec 9e 96 bb 38 30 d5 b9 b2 01 bb bb
       0.00086176785 -0.0045965817 -0.00040662452 -0.005706989
000070 ea b8 53 3a 3e 64 61 3a 5a e9 4c 3a 9a 58 93 ba
       0.00080765656 0.0008598006 0.00078167545 -0.0011241615
000080 d1 f2 66 3a 17 41 93 b9 0c 4b 02 39 7a f3 24 3a
       0.0008809986 -0.0002808652 0.00012425723 0.00062923844
000090 60 74 77 3a 4b 2f c6 b9 4e 0c bc 39 91 2d 60 3a
       0.00094396435 -0.0003780074 0.00035867322 0.0008551712
0000a0 b1 57 08 bb d5 54 2a bc 37 d6 42 b9 4f 5e 3f 3a
       -0.0020804221 -0.010396202 -0.00018581083 0.0007300125
0000b0 9a ba 9b b7 ab cd 1e ba e4 3b 84 bc 07 1c 13 bb
       -1.8564333e-05 -0.00060578686 -0.01614184 -0.0022447126
0000c0 38 91 79 b9 85 a3 0a bb 04 f7 e2 39 93 f3 9f ba
       -0.00023800589 -0.0021154594 0.0004329012 -0.0012203328
0000d0 d2 4e 02 3a e3 4e e6 39 bd fa 92 ba 66 aa 2f 3a
       0.00049708516 0.00043927794 -0.0011213642 0.00067011116
0000e0 6e ac 14 3b 2c 5e 04 3a b1 3e 27 b9 9f b4 53 3b
       0.0022685784 0.0005049433 -0.00015949715 0.0032303703
0000f0 27 53 74 39 a1 4d 02 bc 12 9a 47 ba 56 0e 8d 3a
       0.0002330063 -0.0079530785 -0.0007614206 0.0010761719
000100 36 ae 80 b8 44 57 3a 38 42 b1 1d 3a c4 de 96 b9
       -6.135965e-05 4.4427128e-05 0.0006015488 -0.00028776203
000110 60 e6 68 b4 19 96 8a 39 59 79 a9 b8 2b 31 29 b8
       -2.1690494e-07 0.00026433243 -8.081151e-05 -4.033853e-05
000120 b5 98 4f 39 90 a3 6c 36 53 b7 75 b8 13 dd 32 3a
       0.00019797946 3.5261946e-06 -5.8583286e-05 0.0006823104
000130 5d df 40 b9 aa 56 45 38 07 47 d3 38 94 e4 f1 b8
       -0.00018393756 4.7049172e-05 0.00010074494 -0.000115343515
000140 fc 39 40 b9 72 8b 9a 39 96 af 22 b9 02 0e 04 b8
       -0.00018332148 0.00029477064 -0.00015514935 -3.14843e-05
000150 06 7a 8f b8 03 c5 33 38 f0 5f 42 b9 54 ac 9d 39
       -6.8415e-05 4.2860407e-05 -0.00018537021 0.00030073768
000160 00 31 a5 b4 bd c6 02 bb 60 ae a1 b9 03 8c 96 38
       -3.0769297e-07 -0.0019954883 -0.00030838232 7.1786366e-05
000170 3f e3 a7 38 f8 87 46 39 0d b3 92 38 c8 b3 06 3a
       8.0055084e-05 0.00018933404 6.995173e-05 0.0005138484
000180 e4 2e 43 39 57 fa c1 3a 4f fc 76 38 39 52 52 39
       0.00018614117 0.0014799339 5.888595e-05 0.00020057791
000190 38 84 4d 39 df 9f 93 b8 f7 be fb 37 0f 32 f2 3a
       0.00019599579 -7.0392845e-05 3.0010457e-05 0.0018478053
0001a0 ee 84 6e 39 ba 2f d3 b8 20 c0 96 b8 93 3b 9d 39
       0.00022746969 -0.00010070154 -7.1883434e-05 0.0002998976
0001b0 d0 08 53 39 82 91 3c b8 2e b0 ad 37 54 9c 5d b9
       0.00020125811 -4.4958208e-05 2.0705247e-05 -0.00021134439
0001c0 c4 fa c4 3a 31 5a 2f 38 38 89 86 38 88 e5 11 39
       0.0015028347 4.180725e-05 6.415177e-05 0.00013913785
0001d0 93 b9 b4 3a 68 98 e4 38 2d 9d 17 39 22 90 ab b9
       0.0013788216 0.00010900275 0.00014459035 -0.0003272305
0001e0 c5 35 c5 39 a5 95 99 b8 4d 99 8d b8 27 c5 ca 38
       0.0003761483 -7.323482e-05 -6.7519584e-05 9.668833e-05
0001f0 5d e6 2d b9 37 59 31 38 a6 f2 ff b8 33 9b 0c 39
       -0.00016584383 4.2283176e-05 -0.00012204544 0.00013409257
000200 a4 6b 16 ba a0 2e ee b9 9b dd 89 3c 3e c0 5c 39
       -0.00057380856 -0.00045429636 0.016829303 0.00021052451
000210 95 32 8d 39 a1 dc 3d 37 08 ce 4a b8 84 22 bd 3b
       0.00026931302 1.1316647e-05 -4.8352435e-05 0.005771937
000220 e9 51 c5 b8 99 92 24 b8 fe f4 d9 bb 78 f1 d6 38
       -9.408949e-05 -3.9237177e-05 -0.00665152 0.00010249292
000230 1c c9 40 bb 3f e1 e3 b9 53 0c a8 ba 00 1c 1c b9
       -0.0029416746 -0.00043464635 -0.0012821056 -0.0001488775
000240 4c 7d 46 b9 1d 67 8b 39 89 0a be 38 9b ca 60 3b
       -0.00018929428 0.0002658897 9.061868e-05 0.003430045
000250 08 47 e4 b9 5c 88 16 3a e6 3e 81 38 f7 8a 26 ba
       -0.0004354047 0.0005742365 6.162915e-05 -0.0006353105
000260 c0 26 9d b7 f7 63 3c 39 52 20 c7 ba 56 65 a3 b8
       -1.8733903e-05 0.00017966317 -0.0015192127 -7.791321e-05
000270 10 e9 15 39 d8 8a bd 39 a8 83 e5 bb 49 a3 00 bb
       0.0001429657 0.00036152336 -0.00700422 -0.0019628576
000280 5d 69 57 3a 1f 96 36 ba 21 0c 1d 3b d1 f1 e1 39
       0.00082172995 -0.0006965119 0.0023963528 0.00043095512
000290 86 73 bd 39 53 b4 82 b9 d3 7e e2 3a 20 80 fb 39
       0.0003613496 -0.00024929884 0.0017280228 0.0004796991
0002a0 a4 fe 91 3b 1b 0e e3 bb 2d 64 4a ba 96 24 88 39
       0.0044554044 -0.0069291717 -0.0007720616 0.000259672
0002b0 20 04 47 b5 aa 82 3a ba af c9 68 3b f7 8c 81 bb
       -7.413928e-07 -0.00071148074 0.0035520603 -0.003953572
0002c0 0a 26 c1 b7 4a 8c ca 3a 5b 91 14 ba bf d1 3c 3b
       -2.3025106e-05 0.0015453186 -0.00056674116 0.0028811542
0002d0 be 1c a9 39 ab a1 14 3a e1 81 96 3a 9a a7 f6 b9
       0.00032255606 0.00056698424 0.0011482799 -0.0004704565
0002e0 b5 e9 98 b9 71 cf 06 3a 01 75 16 ba f4 60 83 b9
       -0.00029165825 0.00051426055 -0.0005739481 -0.00025058503
0002f0 e6 7c cc 3a 82 6a cf 3a 8f 0e d4 b9 c6 42 71 3a
       0.0015601187 0.0015824588 -0.00040446638 0.00092033704
000300 88 a6 b1 3b 41 69 23 bb 1e 94 42 3b a3 d8 a5 3c
       0.0054214634 -0.0024934562 0.0029690336 0.020244902
000310 97 c5 b0 3a 1b 96 26 ba e0 0b a9 3b 64 7a ee 38
       0.0013486621 -0.0006354765 0.0051588863 0.000113715214
000320 9e df ee 39 05 31 25 ba 0b 0b 56 39 82 1b c6 39
       0.00045561505 -0.0006301555 0.00020412744 0.00037785998
000330 fd e1 cf 3a d5 f8 19 3a 7a 82 3b 3c dc f6 a5 39
       0.0015860196 0.00058735657 0.011444682 0.00031655177
000340 d1 43 64 3b ed 79 bc bb 7e 66 06 3a 9e 5b 1d 3c
       0.003483046 -0.0057518394 0.0005126967 0.009604363
000350 82 fe 10 39 cc 84 02 39 44 ed e0 38 db 18 3f 3c
       0.00013827722 0.00012447237 0.000107253465 0.011663641
000360 50 07 42 39 f5 a5 02 bb 9f 31 90 3b 62 f0 12 b9
       0.00018504006 -0.0019935344 0.0044004465 -0.00014013195
000370 91 a0 a2 39 6f e0 ab 39 26 40 3e 3a 0b d2 9a b8
       0.0003101868 0.00032782878 0.00072574837 -7.382416e-05
000380 07 a3 9e ba 20 ea cf b9 6d 4a b2 b8 48 bd 8e b9
       -0.0012103029 -0.00039656553 -8.501564e-05 -0.00027225376
000390 f4 2f dd 3b c2 3e d5 b8 d1 30 17 ba 4e 6e 4d 3a
       0.006750101 -0.00010168321 -0.0005767467 0.0007836566
0003a0 a5 32 8a ba be 87 92 bc f9 8b 80 3b fa 83 d5 3b
       -0.0010543658 -0.017886993 0.003922936 0.006515977
0003b0 9e db 3b 3a ea 90 cc 39 13 02 a7 ba de 80 4b ba
       0.00071662094 0.00039017881 -0.0012741707 -0.0007763038
0003c0 49 e6 12 bb 53 da 4b 3a d7 e9 d4 b9 8a 43 81 39
       -0.0022415093 0.00077763683 -0.00040610015 0.00024655118
0003d0 45 10 62 3c 63 9b e3 ba 5a 80 d5 bb 7c b9 f3 39
       0.013797824 -0.0017365034 -0.006515545 0.00046486768
0003e0 dd e3 c0 b9 7d 05 09 3c d4 da 35 3c 95 6a 73 ba
       -0.00036790865 0.008363125 0.011099536 -0.00092855963
0003f0 b6 0a 29 3b f8 4c a9 39 a6 e9 fa b7 5f e0 24 3a
       0.0025793738 0.00032291538 -2.9911123e-05 0.00062895374

lstm.bias_ih_l0 f4 [256]
000000 e8 cd 1b 3d d0 3b 0e bb 2b 73 61 3d 87 5d 10 3d
       0.038038164 -0.0021703131 0.055041473 0.035245445
000010 d1 48 09 3d e7 c1 7b bd fa c3 09 3c fb bd a5 3c
       0.03351671 -0.061464217 0.008408541 0.020232191
000020 7c 35 21 bd 69 58 81 b9 f8 64 45 bd db 0b cb 3a
       -0.039357647 -0.00024670668 -0.048191994 0.0015491204
000030 5e 74 0c bc 5c 14 ab 3a b3 c7 41 3b 09 c4 9c bb
       -0.008572666 0.0013052332 0.0029568493 -0.0047841114
000040 a9 36 a3 ba de ec 77 bc e2 47 56 3a f0 e0 50 3d
       -0.0012452203 -0.015132157 0.00081741635 0.050995767
000050 5e 5f a6 bb 15 62 6c 3a 9b ab 33 ba 8b d1 65 bc
       -0.0050772866 0.0009017301 -0.00068538793 -0.01402701
000060 dd 81 cf bb eb bf 8e 3d a5 d6 62 3b e0 2e 17 3c
       -0.0063326196 0.06970199 0.0034612801 0.009227484
000070 2d f7 b2 3a c8 8d fb bc 11 36 eb bb 82 95 54 ba
       0.0013653986 -0.030707255 -0.007178076 -0.00081094366
000080 0b 2b 9f bc 1e f1 da bc ef 6c c2 bb ab 52 4b bb
       -0.019429704 -0.026726302 -0.005933396 -0.0031024616
000090 3d 37 73 bc d9 e7 1c ba aa dc 2a ba c8 56 5e 3b
       -0.014844713 -0.0005985476 -0.0006517867 0.0033926237
0000a0 8f 56 74 bb a6 1a b9 3c e5 68 9b ba ba df c3 3c
       -0.0037283038 0.022595715 -0.0011856823 0.023910392
0000b0 d6 15 02 3d a2 dc 60 3c de fd ad bc 2b c5 82 bb
       0.031759106 0.013724478 -0.021239217 -0.0039907894
0000c0 d2 ce 17 bd bf 32 0c 3b f6 27 14 3b 5f aa 37 3b
       -0.037062474 0.0021392552 0.0022606826 0.0028025133
0000d0 b3 3c 8a 3d d8 3e 3b bc fc d5 82 3d d1 30 c4 bb
       0.06749859 -0.011428557 0.063884705 -0.0059872647
0000e0 27 00 a2 bb fb 5a 78 bb 84 c5 c5 3a 41 4d bc 3c
       -0.004943866 -0.0037896025 0.0015088771 0.022986056
0000f0 a8 0b 62 3d 65 a4 54 b9 82 44 77 3a 60 98 42 bc
       0.055186898 -0.00020279137 0.00094325107 -0.011877149
000100 86 8f fe 3c 37 18 ca bc 25 2e 2f bd aa 3d f3 bb
       0.031074297 -0.02466975 -0.042768616 -0.0074231224
000110 5a 6e 24 3d c4 30 39 bd 3f f6 99 3c 4c 06 e2 3b
       0.040144302 -0.045212522 0.018794177 0.0068977233
000120 33 12 b4 bc 23 6c c7 3c 26 23 12 bb 03 5a 1b 3d
       -0.021981334 0.024343556 -0.0022298782 0.03792764
000130 23 db 31 bb 04 64 95 ba d1 ff 71 ba 17 9d 85 3c
       -0.0027138672 -0.0011397605 -0.000923154 0.016310258
000140 04 a8 4b ba da 0c 91 3d e7 d7 24 3b ef e0 89 3c
       -0.0007768872 0.07082529 0.0025153102 0.01683089
000150 ea 3b 19 bc dd 33 bc b9 08 33 6a 3b 2a 8c d6 3c
       -0.0093526635 -0.00035896795 0.0035735983 0.026189882
000160 92 5a d6 3b 3a 98 89 bd 8d 69 33 bc b4 37 5a bc
       0.0065415585 -0.06718488 -0.010950458 -0.013318945
000170 64 56 11 3a b5 4a c6 bc 60 e5 37 bc 75 c0 20 bb
       0.0005544184 -0.024205545 -0.011224121 -0.0024528776
000180 cb 7b 2b 3d af a7 bb 3b db c0 0e 3b 0f bb 51 3c
       0.041866105 0.0057267766 0.0021782431 0.012800946
000190 de fa 31 bd c2 60 4d bb 72 5d d2 bb 93 37 04 b9
       -0.043452136 -0.003133819 -0.006419831 -0.00012609204
0001a0 42 e8 5b 3b fe f7 cf bc 35 68 25 bb 1f b9 8a bb
       0.0033555184 -0.025386807 -0.0025239114 -0.004233494
0001b0 19 30 d2 3c e1 23 8f bc 7a 13 89 3c cd aa 5e bc
       0.0256577 -0.017473163 0.01673292 -0.013590527
0001c0 50 f9 af bc 7a 7b 86 bc c4 49 a7 bb e9 89 ee 3a
       -0.021481186 -0.0164163 -0.005105229 0.0018199059
0001d0 be 4a 5a 3d f8 09 41 3b 09 b0 51 bc 50 00 0c bb
       0.053293936 0.0029455405 -0.012798318 -0.002136249
0001e0 e1 7d b7 b9 1e 53 99 3a 8a 61 eb 3c 7d f9 8b bd
       -0.00034998267 0.0011697744 0.028733034 -0.068346955
0001f0 6a f2 81 3d 23 e0 fb b9 56 0a 88 ba 1b f7 50 bb
       0.06345065 -0.00048041446 -0.0010379057 -0.0031885568
000200 4e 22 23 3c 22 34 7b 3d 30 2c f5 bd 3a 59 b3 3c
       0.009956909 0.061329015 -0.11971319 0.021893132
000210 44 ae ef bd a5 53 7d 3d c6 b7 39 3b 7e c7 4b bc
       -0.117031604 0.061847348 0.0028338297 -0.012437699
000220 db d9 db 3d 10 b6 ae 3d 82 cd e3 3d 46 ec bb bd
       0.10734912 0.085308194 0.11123182 -0.09175925
000230 30 8b e0 3c 1c d3 5b 3d 8d 14 93 bc ec 2a 12 bd
       0.02741012 0.053668126 -0.017954135 -0.035685465
000240 90 63 5b 3d c0 0f 48 3d f6 7f b1 bd 05 46 c8 3d
       0.053561747 0.048843145 -0.08666985 0.0977898
000250 ed 89 d8 bc e6 5a 8b bd a8 dd 23 bc 3c 69 a6 bc
       -0.026432956 -0.06804447 -0.010001577 -0.020313852
000260 57 3f 30 bd 85 62 b0 bd dd 1f e5 bc 04 90 da 39
       -0.043029156 -0.08612541 -0.027969295 0.000416875
000270 33 da a3 bd 00 2c 50 3d 5f 4c 81 bd e5 cb b0 bd
       -0.080006026 0.05082321 -0.06313395 -0.0863264
000280 0e 87 08 3d 31 e4 4c bd 4c 1e c9 bd e7 ac 9a bd
       0.033331923 -0.050022308 -0.09820232 -0.0755251
000290 29 72 01 bd c5 3e 8e bd 7b 41 89 bd 61 fd a6 bd
       -0.031603012 -0.06945566 -0.067019425 -0.08153797
0002a0 79 85 ab 3d 97 fe ae 3d 87 95 a4 bd b9 b0 b2 3d
       0.08375067 0.08544653 -0.080363326 0.087251134
0002b0 57 44 31 bd 8c e3 71 bd d5 69 fd bc 7a 28 bf bd
       -0.043278065 -0.059054896 -0.030934254 -0.09333892
0002c0 94 08 8b 3d fa ee a5 3d 40 58 fa bd 2d ef 01 3d
       0.067887455 0.08102222 -0.122238636 0.031722236
0002d0 e6 ae 04 bd 3c fb 29 3d 7b b0 d0 3d 0a 94 3b bd
       -0.03239336 0.04149936 0.10189911 -0.045795478
0002e0 34 8f 97 bd ff b5 84 3d ca 23 88 3d 3a 01 68 bd
       -0.07400361 0.064800255 0.06647451 -0.056641795
0002f0 08 93 1d bd 59 c6 5f 3d 97 18 41 3c 16 92 09 bc
       -0.038470298 0.05463252 0.011785648 -0.008396646
000300 1f af 5c bd 55 0a 59 bc e3 cc 6a bc 9f dd 90 bc
       -0.053877946 -0.013247092 -0.014331075 -0.017683802
000310 43 63 17 3d c6 f6 b2 bc 02 e9 92 bb ef 25 88 3c
       0.036959898 -0.021846186 -0.004483343 0.01661965
000320 65 51 d8 bc ac f3 1a bc 35 be 0e 3c 39 a1 36 3d
       -0.026406 -0.00945751 0.008712341 0.044587348
000330 34 cc ba 3c 8c ff 95 bb 79 41 6f ba 80 93 35 3b
       0.02280245 -0.0045775827 -0.00091268827 0.0027706325
000340 04 4f 7a bb eb 85 80 bd 04 5b 30 39 34 dd 80 bc
       -0.003819407 -0.06275543 0.00016818574 -0.015730478
000350 3f 66 ac 3b e5 20 9b b9 8e 72 01 ba c2 b7 48 bd
       0.005261212 -0.00029588412 -0.00049380295 -0.04900337
000360 54 39 b5 3b 24 b7 42 bc 50 3c ba 3b cd a6 88 3b
       0.0055305157 -0.011884484 0.0056834593 0.004170275
000370 cb e5 cf bb 8f 40 00 bc 9e d2 28 3d 8c f1 04 bc
       -0.006344532 -0.007827892 0.041216485 -0.00811423
000380 ee 6d 93 bb d4 38 fb 3c 83 7e c6 bc 49 df 5b bc
       -0.0044991886 0.030666746 -0.024230247 -0.013419935
000390 e9 c6 11 3d db 35 df 3a 4f b6 a8 bb 36 0a c1 3c
       0.035590086 0.00170296 -0.005148686 0.02356444
0003a0 a3 98 0b bc 72 76 39 3c 32 cf 14 bc c6 80 00 ba
       -0.008520278 0.0113197435 -0.009082602 -0.0004902001
0003b0 e7 7e 39 bc ed ae 60 3c c5 3c cc ba 47 07 8f bd
       -0.01132176 0.013713581 -0.0015582076 -0.0698381
0003c0 e7 2b d3 bb 71 1c 8e bc 11 58 02 3b 75 96 16 bb
       -0.0064444426 -0.017347546 0.0019888917 -0.0022977863
0003d0 27 89 3f bd 7b ae 4d ba 2f e0 26 3d 03 2c 52 bc
       -0.046761658 -0.0007846129 0.040741142 -0.012827876
0003e0 23 2c 3a bb 11 e7 85 bc 9e 31 e1 3c 4a 14 33 bd
       -0.0028407655 -0.016345533 0.02748948 -0.04372052
0003f0 70 93 11 bd 7e 84 59 ba c6 bf 1d 3c 02 3d 71 bc
       -0.035540998 -0.0008297636 0.009628242 -0.014724018

lstm.bias_hh_l0 f4 [256]
000000 b5 c8 40 bc e8 32 c6 bc 30 8c 5e bd 21 f1 2c bd
       -0.011766602 -0.024194196 -0.054332912 -0.042222146
000010 8f 5c 48 3d 4e 6e e5 3b 06 0a 1e bd 41 e9 2a ba
       0.048916396 0.0070016747 -0.038583778 -0.0006519743
000020 ef 2d 59 3d 3b 1e e3 bc 07 0c 7c 3b eb b6 70 bb
       0.05302232 -0.027724376 0.0038459317 -0.0036730121
000030 1b 33 10 bc f6 23 8f ba db ce 87 ba e9 b0 96 3c
       -0.008801247 -0.0010920751 -0.001036133 0.018394904
000040 05 35 d4 ba 9f 2c b3 3c 48 3f 8b 3a 94 39 60 bd
       -0.0016190117 0.021871863 0.0010623718 -0.05474241
000050 13 0e 3b bc f0 22 ca b8 c2 b4 93 ba 13 fa a0 bb
       -0.01141693 -9.638618e-05 -0.001126908 -0.0049126237
000060 fb d4 9b bc ea 02 9f 3d a5 51 22 bc d6 42 6f 3c
       -0.019022455 0.07764228 -0.009907161 0.014603337
000070 df 8b da ba 66 a1 81 3d 98 09 88 3c 5e 0b 80 ba
       -0.0016673765 0.063296124 0.016606137 -0.0009769013
000080 d9 94 9f bc cf 1d 05 bc 8a d0 5d bc 65 18 15 bb
       -0.019480156 -0.008124783 -0.013538489 -0.0022750136
000090 f1 8c d7 bc c0 73 5a 3b 8b 1f 0b ba b9 5b 5c ba
       -0.026312323 0.0033333153 -0.00053071295 -0.0008406002
0000a0 0b 82 08 3c e7 5b 67 3c e8 cc d4 ba 2a e0 bf bb
       0.008331786 0.014121032 -0.0016235383 -0.00585558
0000b0 02 df 87 3b 0f 97 08 bd 76 dc ef bc eb 53 00 bd
       0.0041464576 -0.033347186 -0.029279929 -0.03133003
0000c0 5f d4 5e 3c 5b 26 9a 3c e4 bf e1 ba 82 71 0e ba
       0.013600438 0.018817117 -0.0017223326 -0.0005433784
0000d0 cc 9e 56 3d 40 39 3f 3b 2c ef 88 3d b5 de 94 3a
       0.052397534 0.002917841 0.066862434 0.0011357876
0000e0 54 15 e7 3a 85 f8 a3 bc f3 ca 07 3a 61 b1 7e bd
       0.0017630258 -0.020015964 0.0005180083 -0.06218088
0000f0 d5 05 dc 3b 74 e6 63 ba d8 f5 1f 3c f7 fa 9b ba
       0.0067145624 -0.0008693703 0.009763204 -0.0011900355
000100 76 cb cb 3c 50 f3 5c bc bd 05 63 3d 68 c3 61 bd
       0.024877291 -0.013485745 0.055425394 -0.055117995
000110 74 20 29 3c 9a de 30 bc 4a 7c 94 bc 14 5b 23 bc
       0.010322679 -0.01079526 -0.018125672 -0.009970445
000120 11 ea 0c 3d 0a 15 ef bc 12 a4 0a 3c 98 d0 16 bd
       0.03440291 -0.029184837 0.008461969 -0.036820024
000130 df c7 66 bb d1 22 38 bb 53 3e 78 ba 76 41 10 3c
       -0.0035214347 -0.0028096924 -0.0009469736 0.00880467
000140 1a 1d e4 ba c1 d4 58 3d 70 2e 82 3b 40 b7 57 3d
       -0.0017403692 0.052937273 0.003972821 0.052664995
000150 f5 6b 85 3c 6a 12 a1 3a d0 d5 81 b9 1c 3e 51 ba
       0.01628683 0.0012288813 -0.000247641 -0.00079819723
000160 3a 06 87 3c b0 03 25 bd db e9 47 bb 6f e4 24 3c
       0.016482461 -0.04028672 -0.003050438 0.010064228
000170 25 21 cd 3b 06 4c 48 3c 3f 80 3f 3d 7f fb 03 ba
       0.0062600547 0.012225157 0.046753164 -0.0005034729
000180 01 2d 42 bb 36 11 24 3d 87 62 81 3c ac ed 46 bc
       -0.0029628875 0.040055476 0.015794052 -0.012141626
000190 77 5a 08 3d 2f fa 15 ba 49 f9 a9 bb 26 6c 71 bc
       0.0332894 -0.0005721179 -0.005187188 -0.014735257
0001a0 35 29 b7 ba 53 73 e4 bb 2e 04 a8 ba 61 8a 25 bc
       -0.0013974073 -0.0069717555 -0.0012818628 -0.010103793
0001b0 a3 79 55 bc b4 e6 7d bc a6 68 ad 3c 29 28 8f 3a
       -0.013029489 -0.015496898 0.021168064 0.0010922003
0001c0 f7 64 6a bc 94 70 6c bc 56 92 09 3c ff 1d 33 b9
       -0.014306298 -0.014431138 0.008396706 -0.00017081945
0001d0 4c 08 8c bd e3 06 a4 3c 06 ec 8a 3d c9 04 0a bc
       -0.0683752 0.020022815 0.06783299 -0.008423992
0001e0 c3 b5 b6 bb 04 7c 4f 3b 5a dc 1f bd de 4b a1 3c
       -0.005575867 0.0031659612 -0.039028503 0.019689497
0001f0 7d 79 42 3d a6 51 ec b9 f8 f6 56 3c 37 2f 47 39
       0.04747914 -0.0004507426 0.013120405 0.00018995708
000200 5a 79 e3 bd 7e 86 d8 bd 71 06 98 bc a2 a9 d5 3c
       -0.1110713 -0.10572527 -0.018557759 0.026081864
000210 85 7b 8b bd c6 04 d1 3d c4 5a 5d 3b 98 e5 e1 bd
       -0.06810669 0.102059886 0.0033776024 -0.1103012
000220 1c 0e b5 3d 72 36 89 3d 74 6e 41 3c 78 cd 6a bc
       0.08840582 0.06699838 0.011806119 -0.014331214
000230 f4 96 1c 3d 99 cc a4 bd be d7 cc 3b 24 ce a0 bd
       0.038229898 -0.080468364 0.0062513044 -0.07851818
000240 4e cf 68 bd a0 8c c3 3d da 11 bd 3c d3 22 07 bd
       -0.056838326 0.095483065 0.023079801 -0.032992195
000250 6e bc 55 3d 3d 96 1c 3d 90 8d 31 bd 1b 2a e7 3d
       0.052181654 0.038229216 -0.043347895 0.11287328
000260 42 ba c9 bc 74 39 8b bc aa 55 4d 3d 4b 0b cf bd
       -0.024624947 -0.01699517 0.050130524 -0.10109576
000270 6b e6 09 3d 48 df a0 bd 11 ca 03 bd 25 69 88 3d
       0.03366701 -0.078550875 -0.032175127 0.0666068
000280 cc 62 51 bc 26 16 d8 3d 7a 29 02 3e fd d2 41 3d
       -0.012779903 0.105510995 0.12711135 0.047320355
000290 e5 51 9f bd b5 51 ff 3c d4 3f 9b 3d 7a 4a 07 3c
       -0.07779292 0.03116689 0.075805336 0.008257503
0002a0 95 9b 66 bc bd ae 10 bc bb 9e 85 3d cf ac c1 bd
       -0.01407518 -0.008830723 0.06524416 -0.09456789
0002b0 93 b3 cc 3d 50 de 6d bc 40 9f 79 bd 90 ad d6 3d
       0.099951886 -0.014518335 -0.06094289 0.10482323
0002c0 4f 7d 1e bd 04 da c3 bc 5d 01 49 3d b2 38 c4 bd
       -0.038693722 -0.023907669 0.049073566 -0.09581126
0002d0 23 60 be bd 48 37 b8 3d 52 3a 44 3d 53 34 f1 3c
       -0.092956804 0.08994919 0.04790718 0.029443895
0002e0 0f e1 8e 3d dc 37 cd 3d 1c 86 3d 3d ba c8 cf 3d
       0.0697652 0.1002042 0.046270475 0.101457074
0002f0 09 80 a2 bd 8f b4 e6 bb 81 02 86 bd 15 1a 75 bd
       -0.07934577 -0.007040567 -0.06543446 -0.059839327
000300 ee 82 48 3d 93 c3 31 bc f0 5b d9 bc ac dc 06 3d
       0.04895299 -0.010849851 -0.026533097 0.032925293
000310 75 fa 5f bc d4 f1 39 3d 73 c0 23 bc a4 db 1d 3c
       -0.013670553 0.04539664 -0.009994614 0.009634886
000320 54 95 8f bd b7 2f 8b bc c6 53 2e bd 9e 39 8a 3d
       -0.07010904 -0.016990526 -0.04256036 0.06749271
000330 e8 06 af ba b2 e6 a7 ba 18 71 86 ba 4a 41 d7 ba
       -0.0013353499 -0.0012809841 -0.0010257093 -0.0016422656
000340 e7 98 0f bc ba 8d 25 3d aa c5 08 ba 63 37 6a bd
       -0.008764482 0.040418364 -0.00052174425 -0.057181727
000350 eb 26 37 ba 6c bc 93 b9 16 62 11 bc d6 22 36 bd
       -0.0006986695 -0.0002817841 -0.008873483 -0.044466816
000360 f6 5a 24 bc c1 f0 d7 bc 19 ef 21 bc 6c 23 46 b9
       -0.010031452 -0.026359918 -0.0098836655 -0.00018895947
000370 9b 22 4e ba 22 a8 8a bd 61 1e c0 bb d0 5e 67 bb
       -0.0007863433 -0.0677035 -0.0058629964 -0.0035304315
000380 e5 b2 62 bc c3 f1 ab bc ee 99 8a bb e4 a9 a0 ba
       -0.013836597 -0.020989304 -0.0042297756 -0.0012257663
000390 37 39 85 3c e1 bc 87 3b af 82 82 b9 0b 5e 51 bc
       0.016262634 0.004142389 -0.000248929 -0.012778769
0003a0 5c 97 ac ba 6a cc e4 b7 66 9d d0 ba 90 ed da 3c
       -0.0013167667 -2.7274906e-05 -0.0015916049 0.026724607
0003b0 42 45 f1 bb 74 18 8a 3c b9 b4 3e 3b fe a2 6b 3d
       -0.0073629925 0.016857363 0.0029099418 0.05752849
0003c0 4d bf fa bc 26 4f 73 ba f3 40 ce 3a 79 df ac 3a
       -0.030608797 -0.00092815084 0.0015735909 0.0013189159
0003d0 28 46 af bc a1 0a 62 3c 09 eb 59 bd 74 53 38 3a
       -0.021395758 0.013796479 -0.053202663 0.00070314785
0003e0 0b ec 0e bc d4 54 da 39 94 c9 cc 3c 9a 6d 95 3d
       -0.008723269 0.00041643402 0.024998464 0.072962955
0003f0 84 20 9a 3c 9f f7 f6 b9 9d 00 4f bb e6 e5 32 bc
       0.018814333 -0.00047105268 -0.003158606 -0.01091907

lstm.weight_ih_l1 f4 [256, 64]
000000 e8 2c 10 3c 93 10 9a 39 dd 5a 22 3c d5 6c bc 39
       0.008799769 0.00029385518 0.009909359 0.0003593924
000010 8e 92 14 3c 7e 2c c7 bb 6a 19 bc b8 dd 6c 72 39
       0.0090681445 -0.006078302 -8.969272e-05 0.00023119473
000020 c7 55 85 bc d5 11 e4 bc 36 ea 42 bc 0a a3 6e bc
       -0.016276253 -0.027840534 -0.011896661 -0.014565239
000030 1f b0 ae 3b 7c e4 9b bb ab 79 d1 ba f4 e6 e0 bc
       0.005331054 -0.004757462 -0.0015981694 -0.027453877
000040 e1 6d d9 39 9c d3 d8 bb 87 10 62 39 a5 bb 8e 39
       0.00041471331 -0.0066170227 0.00021559196 0.00027224157
000050 8f 79 fc 39 6b 62 29 bb 73 55 13 3c 63 c4 2e 39
       0.00048155754 -0.0025846015 0.008992541 0.00016667093
000060 c8 5c 3a 3b 22 82 ab bc 53 bf 98 39 e5 49 ac 3b
       0.002843665 -0.020936076 0.00029134247 0.0052578324
000070 d8 dc 42 bb ad e1 7d ba 62 ff c3 38 2f 25 34 3a
       -0.0029733684 -0.00096848124 9.345893e-05 0.0006871996
000080 73 c5 46 ba 30 d5 06 3a f6 d4 62 3a 36 42 c9 b8
       -0.0007582523 0.0005143462 0.00086529495 -9.5967596e-05
000090 d9 fc 6d bc 49 87 13 39 b2 fa d5 b9 dd 3e 33 38
       -0.014525616 0.0001406941 -0.00040813308 4.273547e-05
0000a0 64 d7 5f bb 6a 24 cb bb d7 1e fd 39 12 df ff 3b
       -0.0034155482 -0.0061994093 0.00048278898 0.0078085745
0000b0 35 42 f0 3a 0d 96 68 bb 4a 29 9f 3c 83 c2 92 38
       0.0018330278 -0.0035489828 0.019428868 6.998053e-05
0000c0 ba 5d 54 ba 23 c6 ca 38 c8 b0 a7 39 90 a4 ae b8
       -0.00081011245 9.6690164e-05 0.00031984434 -8.327619e-05
0000d0 dc 5c 96 3a 9b 40 ee 3a 61 35 b5 3c 3d 4f a8 39
       0.0011471766 0.0018177213 0.02212018 0.00032102494
0000e0 18 96 4e 36 5a 6b 28 bb e7 a7 fd bb 73 ca d1 bb
       3.0783758e-06 -0.0025698752 -0.007740963 -0.0064023077
0000f0 2f 70 15 39 18 62 5e b9 43 8c 2f 3a 55 8a 0d 37
       0.00014251539 -0.00021208113 0.0006696621 8.436463e-06
000100 03 d8 26 b9 7f 1b 9b 39 03 88 28 bc 72 70 af 3b
       -0.00015911464 0.0002958439 -0.010286334 0.0053539807
000110 c6 1a c1 ba d2 0f 20 bb 9c 6b 82 3b f4 67 8c 39
       -0.001473271 -0.0024423492 0.003980113 0.00026780332
000120 ef 55 1e b9 47 ba bf 3a 4c 27 f0 3a fa 10 75 bb
       -0.00015100067 0.0014627659 0.0018322258 -0.0037394152
000130 4d 6e 8a 3b 23 d0 b9 3a 69 61 26 3b 8f 9d 1a ba
       0.0042245747 0.001417641 0.002538765 -0.0005898112
000140 9b 88 c3 38 5e 79 11 39 c8 61 58 39 62 d4 55 ba
       9.323769e-05 0.0001387349 0.00020635792 -0.00081569527
000150 bb 41 1d 3a 8e 79 56 b9 69 81 e8 3a 3c 0d 28 3a
       0.00059988693 -0.00020453913 0.0017738763 0.00064106635
000160 af fa b6 3a 69 4f c3 39 9b 23 91 38 46 c6 32 39
       0.0013960208 0.00037252464 6.920771e-05 0.00017049265
000170 ed 0d 85 39 f0 c2 31 3c 0d 1e f9 39 1f c8 14 3c
       0.00025378112 0.010849699 0.0004751537 0.009080916
000180 b4 5a 58 ba 96 77 f7 39 24 09 8f b8 b0 1e 41 3b
       -0.0008253262 0.0004720061 -6.820474e-05 0.0029467754
000190 18 da bd b9 78 c9 a4 3b 96 28 06 39 9a 90 b4 39
       -0.00036211382 0.0050288998 0.00012794355 0.00034440012
0001a0 da c5 93 38 d4 92 c3 39 4a 8b a3 39 6f 84 e3 39
       7.046359e-05 0.00037302694 0.0003119356 0.00043395485
0001b0 2e ec a1 b8 11 5e 60 39 bb 1c fa 38 79 d2 7c b9
       -7.72107e-05 0.00021397347 0.000119262804 -0.00024111
0001c0 24 95 bc b9 d1 3a 78 b9 3f 58 2b 3a 4e f3 34 b9
       -0.00035969273 -0.00023673034 0.0006536282 -0.00017256776
0001d0 d4 52 e8 3a 2e f4 1e 3b d7 1b df b9 2e e6 4f b9
       0.001772488 0.002425443 -0.00042554617 -0.00019826807
0001e0 51 d7 bd 38 df 46 3b ba 32 27 12 ba e7 b3 42 ba
       9.052328e-05 -0.00071440445 -0.00055752986 -0.000742732
0001f0 03 c4 c8 ba 43 fe 74 38 89 57 cc 3b 9f 59 27 3b
       -0.0015317205 5.8410933e-05 0.006236021 0.0025535596
000200 bf 55 7f 3a 73 e9 28 39 1c 91 4d bb 24 20 c1 ba
       0.0009740255 0.00016108695 -0.003136701 -0.001473431
000210 6a 75 fd 3b 18 ac 9c 3b 23 8a 0e bb 16 6a 40 ba
       0.007734944 0.0047812574 -0.0021749816 -0.0007340027
000220 18 9a 27 3b 8c 3f 61 bb 1c 7c ae b9 52 f2 ef b9
       0.0025574025 -0.0034370152 -0.00033280335 -0.00045766175
000230 17 02 83 3a 12 e1 2d ba eb 7a a0 39 bd 17 89 bb
       0.000999513 -0.00066329644 0.0003060916 -0.004183738
000240 1b 3e dd 3a c6 49 96 3a d8 9b fd b9 88 7e 19 b7
       0.0016879471 0.0011466078 -0.00048372033 -9.148971e-06
000250 b4 bb 8e b9 f7 3a 9a 39 a6 f3 02 b9 c6 c7 98 3b
       -0.000272242 0.000294171 -0.00012488532 0.0046624867
000260 f7 df cf ba 81 f3 cd 3a b4 94 07 b9 bb 93 22 3b
       -0.0015859593 0.0015712829 -0.0001293 0.0024807293
000270 fd 11 6c ba cb c9 72 3a 66 a1 0b 39 ac f7 32 bb
       -0.0009005366 0.0009261637 0.00013316199 -0.0027308268
000280 ad 54 d9 ba 11 f1 94 38 4d 5a 7b ba 7d 0b 16 bc
       -0.0016581021 7.102092e-05 -0.0009588346 -0.009158012
000290 a2 5c 1a 3b 07 f5 83 3b c0 5b 38 b6 f4 3d 35 3a
       0.0023553749 0.0040270123 -2.7471542e-06 0.0006913834
0002a0 c7 f4 42 ba 0f 00 cd 38 00 bf 25 39 a5 01 03 3a
       -0.00074369874 9.775173e-05 0.00015806779 0.00049974985
0002b0 fa e9 dd 39 de 03 28 3b 0b 50 66 bb 7a 85 6e ba
       0.0004232673 0.002563707 -0.0035142924 -0.0009098869
0002c0 b5 85 ed 39 56 23 02 3a de 46 97 38 d3 5d 8a 39
       0.00045303782 0.0004964372 7.213441e-05 0.00026391316
0002d0 56 9f 12 3c 50 4b 3e bb 8c d7 56 bb be b0 9c b9
       0.008949121 -0.002903659 -0.0032782285 -0.00029886322
0002e0 1c 85 c0 3a 8d 28 a7 39 de 7b a6 b9 74 4b dc ba
       0.0014688107 0.00031882935 -0.00031754276 -0.0016807155
0002f0 3e 5a 4e bb d2 6a 6e 3a 31 16 9a 3b 27 42 dd 38
       -0.0031486894 0.0009094897 0.0047023525 0.00010550423
000300 da e0 c1 b9 32 ea 64 b8 16 36 cf ba ca c2 0e 3a
       -0.00036979356 -5.4577547e-05 -0.0015808966 0.0005445896
000310 84 f0 c1 39 b8 7b b1 ba 02 9f b3 b8 cf 5d d0 39
       0.00036991027 -0.0013540899 -8.565003e-05 0.00039742744
000320 56 2e 78 3a 6d 8e cb 37 4e 8b a7 38 e7 6c b7 b9
       0.0009467354 2.4265808e-05 7.989128e-05 -0.0003498562
000330 cb cb 1a 39 8b 58 c6 b9 1a e0 d9 b8 6a 78 8d b9
       0.00014762503 -0.00037831473 -0.000103891085 -0.0002698333
000340 f2 6c 40 37 f6 02 b2 38 77 40 b4 b8 51 41 47 bb
       1.1469458e-05 8.488253e-05 -8.595076e-05 -0.0030403922
000350 d1 c0 c6 3a d8 f5 a5 37 d9 71 b3 b8 c9 a4 86 38
       0.0015163665 1.9784013e-05 -8.556591e-05 6.4203115e-05
000360 aa 7c 8f 38 c0 35 86 33 9c a7 46 b9 e6 f1 02 b9
       6.841992e-05 6.249638e-08 -0.00018945191 -0.0001248788
000370 30 cd a7 38 7f c7 97 ba 32 f1 ef 38 24 5a 00 b9
       8.0014e-05 -0.001157984 0.00011441334 -0.00012240611
000380 e0 d8 aa 36 00 47 01 b9 42 47 c2 b8 42 b7 b0 38
       5.0916424e-06 -0.00012328848 -9.263914e-05 8.4264684e-05
000390 44 44 b4 b7 2b 65 32 3b af 4f bf 38 f6 5c 1b 39
       -2.148946e-05 0.0027220945 9.122432e-05 0.00014816583
0003a0 64 4b 03 39 c3 23 00 39 b8 0b 01 ba 0a 9d 6a 39
       0.00012521219 0.00012220354 -0.00049227057 0.0002237448
0003b0 37 b0 2b b9 04 00 cf b8 e2 7d 15 bb b0 43 2b 39
       -0.00016373476 -9.870532e-05 -0.0022810628 0.00016333046
0003c0 ca f1 1a b8 e9 89 15 b9 5d 6f 3a 39 73 7d 6d 39
       -3.6941645e-05 -0.00014261123 0.00017779828 0.00022648815
0003d0 0b 2d 19 b9 be be 9f b8 a0 b8 29 b8 46 51 c6 b9
       -0.00014607997 -7.617239e-05 -4.0464685e-05 -0.00037826056
0003e0 74 96 50 39 fe 72 05 38 77 db 02 39 ee 88 9f b9
       0.00019892474 3.1816766e-05 0.00012479523 -0.00030428864
0003f0 c8 94 8a 37 69 2c 7d b8 fb d2 1c b9 2a b6 25 b8
       1.6520164e-05 -6.036126e-05 -0.00014955916 -3.950872e-05

lstm.weight_hh_l1 f4 [256, 64]
000000 22 da 0d bc 9b 0f 25 b9 41 d4 52 bb da e1 97 38
       -0.008657964 -0.0001574144 -0.003216997 7.242309e-05
000010 30 99 84 b9 f5 ce cc 3a cd be 05 39 c6 86 f6 39
       -0.00025291136 0.0015625643 0.00012754947 0.0004702119
000020 6f e5 3a ba aa 1c af b9 36 03 01 bc 6c d0 0c 3b
       -0.0007129525 -0.00033399957 -0.007874301 0.0021486534
000030 e3 c7 76 3a 42 df b3 b9 bf d4 a4 39 59 d7 6b bb
       0.0009413941 -0.0003430788 0.00031439026 -0.0035986512
000040 a0 fa ec ba 89 e7 0d b9 18 b6 2c 3a 7e ae d6 ba
       -0.0018080063 -0.00013533061 0.00065884134 -0.0016378907
000050 ae 33 24 39 f8 e6 94 bc 02 d3 15 ba 73 70 56 39
       0.00015659511 -0.01817654 -0.00057153415 0.00020450521
000060 d0 67 32 3c 03 63 b9 b9 6b 6b 85 b9 86 95 bc b9
       0.010889009 -0.0003535972 -0.0002544777 -0.00035969558
000070 2b 53 ef b8 51 31 09 39 4f b6 cc 3a e4 60 1c 3c
       -0.00011411899 0.0001308371 0.0015618297 0.009544585
000080 bd f9 85 3b 59 5c 6a bc e8 b2 52 ba 5e 4a 94 bc
       0.004088609 -0.014304244 -0.00080375234 -0.018101867
000090 e5 8d c3 38 f4 45 af 39 74 d8 62 3b 7a 6e 03 3a
       9.3247545e-05 0.0003343072 0.003461388 0.00050137157
0000a0 4a 79 92 b8 34 d1 7a 39 db da 10 3a 6e 0b ba 3c
       -6.984414e-05 0.00023919792 0.0005525776 0.022710528
0000b0 33 eb 9c bc a2 f4 c7 3a ec 78 17 39 b9 a3 71 bb
       -0.01915512 0.0015255401 0.00014445529 -0.0036871268
0000c0 07 f5 b4 bc 62 6d 7c bb 9c 4e 9a 3c 63 16 04 3a
       -0.022089494 -0.0038517346 0.018836312 0.0005038736
0000d0 18 a5 2d bb 00 a4 93 3b 94 b5 b7 ba b2 06 53 3c
       -0.0026496109 0.0045056343 -0.0014015906 0.012880014
0000e0 5e 51 a6 39 a2 9c 84 ba 2d aa 22 39 b5 89 b2 b8
       0.0003172261 -0.0010117481 0.0001551292 -8.513351e-05
0000f0 41 19 d7 3b 28 74 93 38 ce a1 9e ba 71 ad 27 3c
       0.00656429 7.031142e-05 -0.0012102665 0.010234223
000100 f4 47 90 b8 1f ea 83 ba 3b f6 00 39 80 63 ae 37
       -6.8798574e-05 -0.001006428 0.00012298759 2.078875e-05
000110 00 7c 08 b3 33 23 43 38 db 3c b6 b7 2b f8 86 38
       -3.1777745e-08 4.6524405e-05 -2.1724429e-05 6.435843e-05
000120 10 af c9 37 c5 ee da b9 50 25 de 3a fa b4 bc b7
       2.4042587e-05 -0.00041758097 0.0016948376 -2.249562e-05
000130 96 81 33 38 64 14 0f 38 bc 9a 37 b7 5a 35 dc ba
       4.2797612e-05 3.4112847e-05 -1.0943677e-05 -0.0016800568
000140 3b 68 d5 ba b0 1d b9 38 36 3d 2b 38 07 20 23 37
       -0.0016281673 8.827017e-05 4.0826584e-05 9.723014e-06
000150 66 fa e7 b6 7a a5 d6 ba 8d 05 f2 b9 39 1c be b8
       -6.9134867e-06 -0.001637622 -0.00046161973 -9.065163e-05
000160 38 2f 30 38 02 c6 3b b8 bc 0e a1 3b fb ac a4 b7
       4.2005646e-05 -4.4768683e-05 0.0049150866 -1.9630874e-05
000170 ba a9 ad b9 c1 de b6 b9 32 8d 88 b7 62 b4 11 b8
       -0.00033123587 -0.0003487971 -1.6278213e-05 -3.473869e-05
000180 63 75 64 3a 0a bb 6b 38 3c ab 0c b8 89 87 3c 38
       0.0008715002 5.620256e-05 -3.3538076e-05 4.494892e-05
000190 26 84 b6 b7 01 04 78 ba 28 94 7d 38 17 5d 09 b9
       -2.1757627e-05 -0.0009461046 6.045788e-05 -0.00013100017
0001a0 0c 0c 40 b8 27 68 15 37 c6 49 dc 36 66 f7 b6 3a
       -4.5787587e-05 8.905342e-06 6.5650993e-06 0.0013959229
0001b0 48 e1 7f b6 7d 29 26 39 e0 b6 48 b8 ee f6 ba b8
       -3.8129092e-06 0.00015846449 -4.785403e-05 -8.9151654e-05
0001c0 18 7b c3 b9 7e 2f d3 3a 94 3a d5 35 83 cf 63 b8
       -0.0003728501 0.0016112176 1.5886785e-06 -5.4314278e-05
0001d0 c7 de 64 b9 fd 86 ca b7 0b 3d 4f b8 18 33 1e 38
       -0.00021826765 -2.4143135e-05 -4.9409497e-05 3.771772e-05
0001e0 9c a9 69 38 a1 eb 37 3a 4f bf 02 bb 99 dd 34 b8
       5.570949e-05 0.00070160074 -0.0019950455 -4.3121723e-05
0001f0 14 ce 86 b9 90 80 de 3a c6 77 1d b8 78 bd fd b8
       -0.00025712012 0.001697557 -3.7543265e-05 -0.000120992714
000200 e6 3d 17 ba 60 78 4b b8 f6 d6 33 3c 5d 52 a0 39
       -0.00057694165 -4.851108e-05 0.010976544 0.00030578944
000210 b2 0f c2 39 e4 21 f4 b9 57 f6 27 3a ea 35 ba b9
       0.00037014257 -0.00046564557 0.0006407252 -0.00035516854
000220 9b 32 79 b9 aa 78 84 39 6d d5 4b bb 12 8f 6a 3a
       -0.00023765342 0.00025266904 -0.0031102553 0.0008947711
000230 60 fd f7 b8 b2 62 ae ba 4c 22 14 3b 5b da f5 39
       -0.000118250726 -0.001330456 0.002260345 0.0004689273
000240 db cc e6 39 f0 06 4a 39 26 40 a2 39 94 a6 76 b7
       0.00044021648 0.00019266806 0.00030946842 -1.4701527e-05
000250 be ef 9e 38 ed e1 a5 3b 8a e2 25 3b ca 7f 7c b7
       7.5786826e-05 0.005062333 0.002531203 -1.5050124e-05
000260 05 5d 08 ba 17 6c 11 3b cc 2f 4c ba 51 4a 1a bb
       -0.0005201849 0.002218967 -0.0007789105 -0.0023542831
000270 7e b4 b0 b7 9b e8 23 b9 33 3b 8b b8 24 31 19 3c
       -2.1064883e-05 -0.00015631544 -6.639063e-05 0.009350095
000280 1c 86 81 b9 e2 85 b6 ba 0d e7 97 ba 3e 41 c0 b9
       -0.00024704717 -0.0013925398 -0.0011589244 -0.00036669703
000290 94 45 8b b8 88 2b f0 b8 ac 75 4d 3a 22 47 a6 39
       -6.6409964e-05 -0.000114522 0.0007837664 0.00031714985
0002a0 04 d8 96 bb fa df 82 b9 df 84 b5 bb 8f 18 ce bb
       -0.004603388 -0.00024962408 -0.005539521 -0.0062895487
0002b0 dc 88 e4 bb 24 22 06 bc 21 6e 92 38 3a 9d 47 bb
       -0.0069743227 -0.008186851 6.9823356e-05 -0.0030458705
0002c0 c4 ab f4 3b da b4 17 b9 ac 72 7d b9 70 6e 27 ba
       0.007466765 -0.00014467855 -0.00024170679 -0.0006387001
0002d0 bd df 0b 3c 14 f9 5e b9 e4 5b 61 38 de 16 c5 3b
       0.00853723 -0.00021264359 5.372976e-05 0.006014689
0002e0 bc 04 99 b9 5e de 7f b8 d6 aa 80 b9 98 ed b7 b7
       -0.00029185961 -6.1003833e-05 -0.00024541345 -2.1925938e-05
0002f0 aa de 06 3b 8a 4f 19 38 9c b8 9c 39 dd 08 db 3b
       0.0020579495 3.655212e-05 0.00029892183 0.006684406
000300 34 68 ff 3a 56 f5 91 ba 60 2a 6e b8 14 ba a6 b7
       0.0019486011 -0.0011135738 -5.6783087e-05 -1.9875391e-05
000310 7a 0b 83 b5 f3 39 23 39 58 a5 cf b9 5e 66 b1 ba
       -9.763601e-07 0.00015566479 -0.00039605307 -0.0013534536
000320 21 90 c8 37 40 a0 d2 38 46 0d 2f 38 7d 99 12 38
       2.3908973e-05 0.00010043429 4.1735613e-05 3.495206e-05
000330 0f 4c 3c b8 ae 24 bc 38 90 8d 0e 38 c6 8d 91 3a
       -4.4893528e-05 8.971371e-05 3.398728e-05 0.0011104874
000340 a9 52 3d 37 34 a8 b0 38 35 a0 1c b8 be eb 10 b8
       1.1284524e-05 8.423664e-05 -3.7342503e-05 -3.4551827e-05
000350 76 af 18 b7 d4 07 45 b8 b5 9e 8a b8 e6 ae 24 b8
       -9.100759e-06 -4.697575e-05 -6.609914e-05 -3.9263534e-05
000360 5d 9e 99 b7 21 37 cf 37 7b 3f 04 38 da 50 3e b8
       -1.8312765e-05 2.4701994e-05 3.1530373e-05 -4.537483e-05
000370 cf 88 6e b7 04 e5 8d b8 48 74 83 b5 34 ec 29 b8
       -1.4217759e-05 -6.7660614e-05 -9.794103e-07 -4.051272e-05
000380 3d da e5 b7 a8 76 35 b8 62 5e 48 38 2a 58 8d b8
       -2.7400552e-05 -4.326427e-05 4.7771617e-05 -6.739826e-05
000390 a9 a7 bf b7 00 64 cd b9 a9 52 69 38 9f 50 f0 37
       -2.2847047e-05 -0.00039175153 5.5628512e-05 2.8647772e-05
0003a0 1d ae d2 37 c8 34 bb b7 e2 bb 80 b8 65 01 61 b7
       2.5115029e-05 -2.2316715e-05 -6.1385115e-05 -1.341137e-05
0003b0 85 ff 5c 3a f9 2f d2 b7 94 90 a5 b7 10 4a 13 b6
       0.00084304094 -2.505629e-05 -1.9736857e-05 -2.1947817e-06
0003c0 fc 8a 03 38 4a 51 e9 b7 04 5f 1e 38 e9 f0 34 b9
       3.1362273e-05 -2.7813618e-05 3.7758626e-05 -0.00017255884
0003d0 4e 85 02 39 f7 b1 49 b8 84 9f 36 3b 6b 9a 03 39
       0.00012447426 -4.8087877e-05 0.0027866075 0.00012550659
0003e0 26 fc 28 b9 ce 72 ec 39 f0 33 3f b8 f4 1b 10 b7
       -0.00016115661 0.00045098964 -4.558632e-05 -8.589577e-06
0003f0 b0 d7 66 38 cc 1c 05 b7 75 ef 00 37 14 15 43 38
       5.5037148e-05 -7.934123e-06 7.6851475e-06 4.6511253e-05
